trained_models/CMFoE/checkpoints/checkpoint_10001.pth (torch, 18958 bytes, 14 tensors)

lamb f8 []
0	0x401be565f8cc573f	6.9740218043060045

Q_param f8 [16, 4, 4]
0	0x3fcf44e300000000	0.24428975582122803
1	0x3fdc39c6c0000000	0.44102638959884644
2	0xbfd22f4cc0000000	-0.28413695096969604
3	0xbfcf9a9100000000	-0.24690449237823486
4	0xbfc2814080000000	-0.14456945657730103
5	0x3f99f8cc00000000	0.025363147258758545
6	0x3fd334d480000000	0.3000994920730591
7	0xbfd24481c0000000	-0.2854313254356384
8	0x3fd0055b80000000	0.2503269910812378
9	0xbfc6efb880000000	-0.17919069528579712
10	0x3fd354dd00000000	0.30205464363098145
11	0xbf984ef000000000	-0.023738622665405273
12	0xbfdc08e780000000	-0.438043475151062
13	0xbfd19b9d40000000	-0.2751229405403137
14	0xbfd728fa00000000	-0.3618760108947754
15	0x3fcfbdd980000000	0.2479812502861023
16	0xbfd5752180000000	-0.3352741003036499
17	0xbfa5545800000000	-0.04165911674499512
18	0x3fbb9de300000000	0.10787791013717651
19	0xbfd18c7300000000	-0.2741973400115967
20	0x3fc2764b00000000	0.1442350149154663
21	0xbfdf3edc40000000	-0.4882116913795471
22	0xbfd6e57200000000	-0.3577542304992676
23	0xbfdcfef680000000	-0.45306169986724854
24	0xbfc35bca00000000	-0.15123867988586426
25	0xbfc750a600000000	-0.18214869499206543
26	0x3fb2542900000000	0.07159668207168579
27	0xbfb7ab4700000000	-0.09245723485946655
28	0x3fce15d300000000	0.23504102230072021
29	0x3fdd566340000000	0.45839768648147583
30	0x3fc6f66f00000000	0.17939555644989014
31	0xbfc936c380000000	-0.19698375463485718
32	0xbfddf6df00000000	-0.46819281578063965
33	0x3fc72e5100000000	0.1811009645462036
34	0xbfcfb59500000000	-0.24772894382476807
35	0x3fd048b700000000	0.2544381618499756
36	0x3fd5643a80000000	0.33424246311187744
37	0x3fc8afa500000000	0.19286024570465088
38	0x3fde06a440000000	0.46915537118911743
39	0x3fde64bb80000000	0.47489821910858154
40	0x3fbb1a4b00000000	0.10586994886398315
41	0xbfd750fe00000000	-0.3643183708190918
42	0x3fdc971240000000	0.4467206597328186
43	0xbfce5e2380000000	-0.23724788427352905
44	0xbfce3b0a80000000	-0.23617678880691528
45	0x3fdac6e400000000	0.41838932037353516
46	0x3fd8cb3f00000000	0.3874051570892334
47	0x3fc3567280000000	0.15107566118240356
48	0x3fa00c0c00000000	0.03134191036224365
49	0xbfdaead4c0000000	-0.42058295011520386
50	0xbfaa92e800000000	-0.051902055740356445
51	0x3fdeb129c0000000	0.4795631766319275
52	0x3fc04c5480000000	0.12732940912246704
53	0x3fa5eb1000000000	0.04280900955200195
54	0xbfba944f00000000	-0.10382550954818726
55	0xbfc6527300000000	-0.17439115047454834
56	0x3fd3129e40000000	0.2980113625526428
57	0x3f9f930400000000	0.03083425760269165
58	0x3fd4d18100000000	0.3252871036529541
59	0xbfb6a7e400000000	-0.08849930763244629
60	0x3fcbf65200000000	0.21845459938049316
61	0x3fca6ad280000000	0.20638495683670044
62	0x3fb4695200000000	0.07973206043243408
63	0x3fd41ba1c0000000	0.3141865134239197
64	0x3fd40d7bc0000000	0.3133229613304138
65	0x3fdda95b00000000	0.46346163749694824
66	0x3fd899d000000000	0.3843879699707031
67	0xbfc05d5580000000	-0.1278483271598816
68	0xbfdb178340000000	-0.4233101010322571
69	0x3fb7669000000000	0.09140872955322266
70	0xbf71e02000000000	-0.004364132881164551
71	0xbfc0b15d00000000	-0.13041269779205322
72	0xbfb56f2800000000	-0.08372735977172852
73	0x3f9814b000000000	0.023516416549682617
74	0x3fd75920c0000000	0.3648149371147156
75	0x3fc3f39180000000	0.15587061643600464
76	0xbfc6b9dd80000000	-0.1775471568107605
77	0xbfca518280000000	-0.20561248064041138
78	0xbfbfb26200000000	-0.12381565570831299
79	0xbfc8bc7700000000	-0.19325149059295654
80	0x3fdcc66f00000000	0.4496114253997803
81	0x3fd0f2dac0000000	0.26482266187667847
82	0x3fdce52d40000000	0.45148783922195435
83	0x3f5a298000000000	0.0015968084335327148
84	0x3fb9d05a00000000	0.10083544254302979
85	0x3fc6316480000000	0.17338234186172485
86	0xbfde4a29c0000000	-0.4732765555381775
87	0x3fa6dc2400000000	0.04464828968048096
88	0xbfa11fb400000000	-0.033445000648498535
89	0xbfd1f0e0c0000000	-0.2803270220756531
90	0xbfd8d48f80000000	-0.3879736661911011
91	0x3fdc542b00000000	0.44263720512390137
92	0x3fda04a300000000	0.40653300285339355
93	0x3fcda97880000000	0.23173433542251587
94	0x3fde8936c0000000	0.4771248698234558
95	0xbfc9f8c180000000	-0.20290392637252808
96	0xbfb61bc700000000	-0.0863613486289978
97	0x3fc83b4980000000	0.18930929899215698
98	0xbfb5262500000000	-0.08261328935623169
99	0xbfb91e3900000000	-0.0981174111366272
100	0xbfda733100000000	-0.413280725479126
101	0x3fc131bf00000000	0.1343306303024292
102	0xbfd356a600000000	-0.30216360092163086
103	0x3f929e9800000000	0.018183112144470215
104	0x3fdf330000000000	0.48748779296875
105	0xbfc3b33f00000000	-0.1539076566696167
106	0xbfc42c1a00000000	-0.15759587287902832
107	0x3fd34e56c0000000	0.30165642499923706
108	0xbfc787a180000000	-0.18382662534713745
109	0xbfa5fc1000000000	-0.0429387092590332
110	0x3fdde12f80000000	0.4668692350387573
111	0xbfca3d0280000000	-0.20498687028884888
112	0xbfd6e4a400000000	-0.35770511627197266
113	0xbfd1e89a00000000	-0.27982187271118164
114	0xbfc1be6480000000	-0.13862282037734985
115	0xbfce5e3000000000	-0.23724937438964844
116	0xbfd09b16c0000000	-0.25946587324142456
117	0x3fc9da3a00000000	0.20197224617004395
118	0x3fb5c08500000000	0.08496886491775513
119	0xbfc47be380000000	-0.1600307822227478
120	0xbfd8dc7540000000	-0.38845568895339966
121	0xbfc426aa00000000	-0.15742993354797363
122	0xbfcb02b080000000	-0.2110195755958557
123	0xbfc4d3aa00000000	-0.16270947456359863
124	0xbfdcde3100000000	-0.451061487197876
125	0x3fbb932e00000000	0.10771453380584717
126	0xbfd782db00000000	-0.36736178398132324
127	0xbfd8ebec40000000	-0.38939958810806274
128	0xbfda2522c0000000	-0.4085165858268738
129	0x3fcab66a00000000	0.20869183540344238
130	0xbfd343cd80000000	-0.30101335048675537
131	0xbfca6a8280000000	-0.20637542009353638
132	0x3fd9153900000000	0.3919203281402588
133	0x3fd0fda8c0000000	0.2654821276664734
134	0x3fd2593880000000	0.28669559955596924
135	0xbfde625b80000000	-0.4747532606124878
136	0xbfd6f27b40000000	-0.35854989290237427
137	0xbfc8292400000000	-0.18875551223754883
138	0x3fda6f6440000000	0.41304880380630493
139	0x3faa305c00000000	0.05115020275115967
140	0xbfd7eec600000000	-0.3739485740661621
141	0x3f69a60000000000	0.0031309127807617188
142	0xbfd8da7cc0000000	-0.3883354067802429
143	0xbfbc0b7200000000	-0.1095496416091919
144	0xbfc1993100000000	-0.137487530708313
145	0x3fdbb38000000000	0.432830810546875
146	0x3fc3d2ba00000000	0.15486836433410645
147	0xbfb651cb00000000	-0.0871855616569519
148	0x3fb59f7500000000	0.08446437120437622
149	0xbfc2797f00000000	-0.14433276653289795
150	0x3fc9254780000000	0.19645017385482788
151	0x3fc950eb00000000	0.19778192043304443
152	0x3fc12fdc00000000	0.13427305221557617
153	0xbfc8f21b00000000	-0.19488847255706787
154	0x3fdb4d02c0000000	0.42657536268234253
155	0xbfb27ab700000000	-0.0721849799156189
156	0xbfc8ea9080000000	-0.1946583390235901
157	0x3fd40ac3c0000000	0.31315702199935913
158	0x3fda14f1c0000000	0.4075283408164978
159	0x3fdfd85940000000	0.4975798726081848
160	0x3fc2f5e580000000	0.1481291651725769
161	0xbfc5d13480000000	-0.17044693231582642
162	0x3fd040a6c0000000	0.2539460062980652
163	0x3fdb745d00000000	0.42897725105285645
164	0xbfdf62fe40000000	-0.4904170632362366
165	0xbfafb70e00000000	-0.06194347143173218
166	0xbfd5d2a940000000	-0.34098273515701294
167	0x3fb7daa300000000	0.09317988157272339
168	0x3fca782c80000000	0.206792414188385
169	0xbfba717900000000	-0.10329395532608032
170	0xbfa56a8e00000000	-0.04182857275009155
171	0x3fccce9d80000000	0.22505539655685425
172	0xbfb5834f00000000	-0.08403486013412476
173	0xbfdadf7940000000	-0.41988974809646606
174	0x3fd99ab6c0000000	0.4000679850578308
175	0xbfd01b2700000000	-0.25165724754333496
176	0xbfac1fb000000000	-0.054929256439208984
177	0x3fa825c600000000	0.047163188457489014
178	0xbf9ec50400000000	-0.0300484299659729
179	0xbfde1a1980000000	-0.4703429937362671
180	0x3fcd5cfa80000000	0.22939997911453247
181	0xbfcd122100000000	-0.22711575031280518
182	0xbfd098dc00000000	-0.25932979583740234
183	0x3fbe94c800000000	0.11945772171020508
184	0xbfd0b31800000000	-0.26093101501464844
185	0xbfcd940600000000	-0.2310798168182373
186	0xbfc5909680000000	-0.1684749722480774
187	0xbfc80b1a00000000	-0.18783879280090332
188	0xbfcaba9280000000	-0.2088187336921692
189	0xbfc1428880000000	-0.13484293222427368
190	0x3fc0a1ce00000000	0.12993788719177246
191	0xbfd9e51d00000000	-0.40460896492004395
192	0xbfd35e74c0000000	-0.3026401400566101
193	0x3f7de22000000000	0.007295727729797363
194	0x3fb1ccfc00000000	0.0695340633392334
195	0x3fd1ac6140000000	0.2761462330818176
196	0xbfd67a6bc0000000	-0.3512219786643982
197	0x3fc46db900000000	0.1595984697341919
198	0x3fd2303fc0000000	0.2841948866844177
199	0x3fd1c4b100000000	0.277630090713501
200	0xbfddce3480000000	-0.46571075916290283
201	0xbfc86c3400000000	-0.19080209732055664
202	0xbfdb818fc0000000	-0.42978280782699585
203	0xbfd43ffdc0000000	-0.316405713558197
204	0x3fd1d2cdc0000000	0.27849143743515015
205	0xbfb31ce300000000	-0.07465952634811401
206	0x3fcb2e7880000000	0.21235567331314087
207	0xbfd2c8c180000000	-0.29350316524505615
208	0x3fb3736c00000000	0.07597994804382324
209	0xbfd35aff00000000	-0.3024289608001709
210	0x3fcffe3b00000000	0.2499459981918335
211	0xbfcbfe0480000000	-0.21868950128555298
212	0xbfc00c7000000000	-0.1253795623779297
213	0xbfdbc3a2c0000000	-0.4338156580924988
214	0x3f5b100000000000	0.001651763916015625
215	0x3fde622440000000	0.47474008798599243
216	0x3fcf106f80000000	0.2426890730857849
217	0xbfd112c480000000	-0.26677048206329346
218	0x3f7b8b0000000000	0.006724357604980469
219	0xbfac11ec00000000	-0.054824233055114746
220	0xbfd9c32b00000000	-0.40253710746765137
221	0x3fd9174640000000	0.3920455574989319
222	0x3f8081f000000000	0.008060336112976074
223	0x3fbaf4d800000000	0.10529851913452148
224	0xbfc9d85580000000	-0.2019144892692566
225	0xbfcdf26300000000	-0.23395955562591553
226	0x3fb51b1a00000000	0.08244478702545166
227	0x3fc7a95800000000	0.18485546112060547
228	0x3fbcb5cc00000000	0.11214900016784668
229	0xbfced83000000000	-0.24097251892089844
230	0x3fdf119840000000	0.4854488968849182
231	0xbfb2d79800000000	-0.07360219955444336
232	0xbfd398e780000000	-0.306207537651062
233	0xbfcdef0100000000	-0.23385632038116455
234	0x3fdf806000000000	0.49221038818359375
235	0x3ef9400000000000	2.4080276489257812e-05
236	0xbfb1601100000000	-0.06787210702896118
237	0xbfcaa26500000000	-0.20808088779449463
238	0xbfc0c6fd80000000	-0.13107270002365112
239	0xbfdaf38940000000	-0.4211142659187317
240	0xbfd96e0c00000000	-0.3973417282104492
241	0x3fd2bab100000000	0.292644739151001
242	0x3fdb5fd780000000	0.4277247190475464
243	0x3fde89a100000000	0.47715020179748535
244	0xbfd71a26c0000000	-0.3609711527824402
245	0x3fd14ec080000000	0.27043163776397705
246	0xbfd3ce9300000000	-0.30948328971862793
247	0x3fd3170580000000	0.29828011989593506
248	0x3fd716f900000000	0.3607771396636963
249	0x3fd8c38d00000000	0.3869354724884033
250	0x3fd70aa900000000	0.36002564430236816
251	0x3fd404b240000000	0.31278663873672485
252	0x3f83ee4800000000	0.009731829166412354
253	0x3fcd682900000000	0.22974121570587158
254	0xbfc6e5b800000000	-0.17888545989990234
255	0x3fcbde2a00000000	0.21771740913391113

taus f8 [1, 1, 16, 1, 1]
0	0x4004000000000000	2.5
1	0x4004000000000000	2.5
2	0x4004000000000000	2.5
3	0x4004000000000000	2.5
4	0x4004000000000000	2.5
5	0x4004000000000000	2.5
6	0x4004000000000000	2.5
7	0x4004000000000000	2.5
8	0x4004000000000000	2.5
9	0x4004000000000000	2.5
10	0x4004000000000000	2.5
11	0x4004000000000000	2.5
12	0x4004000000000000	2.5
13	0x4004000000000000	2.5
14	0x4004000000000000	2.5
15	0x4004000000000000	2.5

eps_omega f8 []
0	0xc02426f55abf93f7	-10.076090656171784

l_op.eps_theta f8 []
0	0xc0231b1ea4e563b6	-9.552968171121261

l_op.conv_layers.0.conv_param.parametrizations.weight.original f8 [4, 1, 5]
0	0x3fe26a7fa1e00c91	0.5755003129601325
1	0x3feab0d51df316c2	0.8340859971001111
2	0xbfe127a504960e9c	-0.536089428860993
3	0x3fd146a5a12081ff	0.26993695006424895
4	0xbfcedab43e6fbb09	-0.24104931877760574
5	0x3fec1e8cb95c65ca	0.8787292118387822
6	0xbfefb6d2d6fce3de	-0.9910673331243023
7	0x3fe74a31896cdd06	0.7278068241202227
8	0x3fd1b750e3e7b52d	0.27681371933325033
9	0xbfece400f5223775	-0.9028324878470203
10	0x3fdc4702f8cdaed4	0.4418342046471768
11	0x3f6a22fc6fa7a7e9	0.003190510787352875
12	0x3ff27dce1b120e72	1.1557141358797733
13	0xbfde4dee12fa3678	-0.47350646832715126
14	0x3f7bd05207af5304	0.006790466718446412
15	0xbf7710ec388414d7	-0.0056313731549881485
16	0x3fe307eca70eff53	0.594717336927696
17	0x3fc9ad19bf26e23d	0.20059511025989876
18	0xbfe42c351cd0da02	-0.6303964197930443
19	0x3fb7befaae0f6ef9	0.09275786160963752

l_op.conv_layers.1.conv_param.weight f8 [8, 4, 5]
0	0xbfe2b9f4e434dbc4	-0.5851997811467915
1	0x3ff4bc57f8d416ad	1.2959823341238164
2	0xbffedece1abf541b	-1.929395775300924
3	0x3ffd6d6f80b89e0a	1.8392176654978152
4	0xbfb8fec1b1a0f6b7	-0.09763727747573624
5	0x3fde64a6b2d3d676	0.47489325965521034
6	0xbfeee90190f9ba2c	-0.9659431296875645
7	0xbfd2c5022d0ea955	-0.2932744445812621
8	0x3fd2f9a55f94b3f7	0.29648718198842466
9	0x3fca4627e31ae136	0.20526598538504864
10	0xbfbc4b6b9603c099	-0.11052582180468774
11	0xbff5444290692acf	-1.3291650429770703
12	0x3ff70a59523aa32e	1.4400265895912514
13	0xbff3a67f13981f3c	-1.2281485333823658
14	0x3fe819a265b6b1fc	0.7531291948885719
15	0xbfeb71764e984dd2	-0.857600358491647
16	0xbfd85fe03a0acda8	-0.3808517996614804
17	0x3ff10cddf199b992	1.0656413495558792
18	0xbfe35dc20f2f4922	-0.6051950737549172
19	0x3fce88a0d114c692	0.2385445614723279
20	0x3fe93af457bd7873	0.7884465898203089
21	0x3fdac557bd794e50	0.41829484465890676
22	0xbff251310c7bd7a1	-1.1448221671721301
23	0x3ff0c15b6d6bcb54	1.0472063326130483
24	0x3fe09cc804d74b5e	0.5191383451986942
25	0xbfbe25f21efdc82f	-0.11776650673508081
26	0x3fd38275a1bc8e71	0.3048376159151536
27	0xbfd48733634541d4	-0.3207519978941751
28	0x3fda4cc062b7087c	0.4109345401776705
29	0xbfb6096176be824c	-0.08608063839938856
30	0xbfcc07b9b0e7ba2e	-0.2189857591433379
31	0xbfd11e4e6a7d60de	-0.26747475051298675
32	0x3fc7512d6e1b627a	0.18216483951870882
33	0xbfc8073793c9577b	-0.18772024837624798
34	0xbfa157036f218b29	-0.0338669846685405
35	0x3fc30025d70e56c3	0.14844201088697248
36	0xbfe1ea99dfe5199e	-0.5598878262469957
37	0x3fd46de51528e55a	0.31920744959241676
38	0x3fbb5d0c8e555890	0.10688856577812289
39	0xbfd395be5f9aea4f	-0.30601462685050235
40	0x3fd150f7d4f66268	0.27056690022576513
41	0x3fe349fe5ca7e14e	0.6027824220355258
42	0xbfef2e28fbac46f7	-0.9743847766387422
43	0x3fe6630148a63df2	0.6995855730946785
44	0x3fdfcc5034ab44a7	0.496845294413172
45	0x3fdb33550eedbbe0	0.4250080724513605
46	0x3fd656525b7def83	0.34901865896949164
47	0xbfe5cab3158f8c02	-0.6809935971363077
48	0x3fa23f81225d8197	0.035640750355699406
49	0xbfd89cda7e6dd360	-0.38457357737143205
50	0x3fd8419a26c31f6d	0.37900403771754193
51	0x3fba8c9a3c394583	0.10370792360597218
52	0x3fdbe6d111141847	0.4359629313261206
53	0xbfe7250400a7ac8a	-0.7232685101311216
54	0xbfc3576fe7177ac0	-0.15110586913848145
55	0xbfd730ba608f4df3	-0.36234912328401875
56	0xbfe6b58ca06e8b78	-0.7096617825921916
57	0x3fd7c97f9dcf4591	0.3716734925374903
58	0xbfb07c6d4289feb4	-0.06439860224235866
59	0x3fce47237efed06c	0.2365459795088357
60	0x3fde3a21f414c310	0.47229813419385014
61	0xbfdb9296351d2265	-0.43082194506545185
62	0xbfc234c96813a229	-0.1422359235941866
63	0xbf80fa636eb77501	-0.008290077987960222
64	0x3fd884419a2fb3a1	0.3830722814298558
65	0x3fa47538e8608607	0.03995683514245845
66	0x3fd44624302131b7	0.31678108883059103
67	0xbfbabce859f48bd7	-0.1044450015656787
68	0xbfa76cc69a69691b	-0.0457517684451025
69	0x3fda41ef63d7d0fc	0.41027436018272545
70	0x3fe1782887e0acd5	0.54591776407815
71	0x3fa19c01c78b7d69	0.034393363579279086
72	0xbfb82396123245d8	-0.09429300255057826
73	0x3fcbd88a4434abc9	0.2175457795177336
74	0xbfdd746f04ebdae0	-0.460231547170606
75	0x3fdb1ea9ec04616b	0.4237465672354321
76	0x3fcac1a778325028	0.20903485650035347
77	0xbfce879642c7cc8c	-0.23851278553738486
78	0x3fb12d3ce15810eb	0.06709652425348948
79	0xbfdb684e5af6ead8	-0.42824133761648175
80	0xbfd4c6bcbf8857c0	-0.32462996200899497
81	0xbfccb0ad8468fa65	-0.22414177861533627
82	0x3fd9cde8821a7b0f	0.4031926413098725
83	0xbfe5e01c437189f9	-0.6836072270637593
84	0x3fdd9bdc6e180b2a	0.4626380038391057
85	0xbfba03412e406e44	-0.10161216143790691
86	0x3fc1b2bbb0f511b0	0.13826700344556064
87	0x3fdea7d76b4c8497	0.4789942310181429
88	0xbfe5bf10c81afe2e	-0.6795734318074602
89	0x3fd6311ba6e57bb6	0.3467473153922883
90	0x3fc3821420d13510	0.15240718462374803
91	0x3fc6225798070033	0.17292303965769093
92	0xbfa825966807f20d	-0.047161770056821074
93	0x3fad5cc467643149	0.05734838258840342
94	0xbfbf64ba88be4fc7	-0.12263074720823318
95	0xbf7648908712a826	-0.005440296708153302
96	0x3fd8b2dbbbf847d7	0.38591664654188435
97	0xbfda287867e8e13b	-0.4087201132529292
98	0x3fcb952d56f2e838	0.21549002404737094
99	0x3fc6dfcbf2c84372	0.17870473246196245
100	0x3fcbd46bac279f86	0.21742006212229742
101	0xbfb5a5ae6924f96b	-0.08455934588434892
102	0x3fc2899e9e1c7b2a	0.14482481689716425
103	0xbfda564d96358c81	-0.41151752156128657
104	0xbfd7955f8dae6a05	-0.3684920199972626
105	0xbfe54232296c1245	-0.664330559637684
106	0xbfc6fa4cd81bc1d4	-0.17951355507058386
107	0xbf983a21ac5f9ace	-0.023659254213181317
108	0x3fdab53b9e4f3440	0.4173115774145266
109	0x3fd286a30c3cc654	0.2894675845628616
110	0xbfc39456ed017397	-0.15296446392576676
111	0xbfb08b0b199b0ab6	-0.06462163329255585
112	0xbfc9cb25e7acd7b6	-0.20151208698524464
113	0x3fd3cc56d49d8de6	0.3093468738863677
114	0xbfceb5b4b3d393c1	-0.2399202230509712
115	0xbfc19a0b78de245c	-0.13751357461686353
116	0xbfd60ec24a88f3fb	-0.3446508148079485
117	0xbfd0903abe846a06	-0.25880306821059695
118	0xbfa3a263e555b989	-0.03834831404207068
119	0xbfd1da4ef67dc101	-0.2789494902745134
120	0x3feafb81b7787d0b	0.8432015021716394
121	0xbfe57c14a7614d98	-0.6713965672628772
122	0x3fd31a1d703a4a94	0.2984689327214849
123	0xbfece0a08dbbdfda	-0.9024203079452449
124	0xbfa4cc8f9429ef12	-0.040623175465013386
125	0x3fd66338c5823ff6	0.34980601585357307
126	0x3fd60eb0f5058ef6	0.34464668205167415
127	0x3fdbb2eb97d5ef46	0.4327954275865874
128	0xbfa5c064ae5e3043	-0.04248346928133675
129	0xbfca43d04fe0ec39	-0.20519451046297535
130	0x3fe07c9426cc24ff	0.5152073629152766
131	0x3fd25ec2066ae9ca	0.28703356386872925
132	0x3fbf89f97fe9d895	0.12319907544028504
133	0x3fe2ed7462ee12ed	0.591486161444292
134	0xbfe0bdba36310425	-0.5231600817134036
135	0x3f9e63bf5b64e101	0.029677381470919254
136	0xbfc3646f69104285	-0.15150253896765178
137	0xbfcb8f407377af56	-0.21530919683515987
138	0x3fe7d699700c315d	0.7449462116651763
139	0xbfe84c9f8ac519c8	-0.7593534193372813
140	0xbfe655a807554494	-0.6979560988639997
141	0x3fed9aba249c7b6d	0.9251375880302085
142	0xbf6aeb241a435701	-0.0032859521034919186
143	0xbfe2995b2ba1af36	-0.5812202312640469
144	0x3fefabfcc3adcac2	0.9897445508816747
145	0x3ff1e03aea4538f8	1.1172436858356019
146	0xbff4c789449e5706	-1.2987148933802373
147	0x3ff45367dcfd0705	1.270362723575489
148	0xbfe35ede9e80364a	-0.6053307624549202
149	0xbfc0af9b3d063b28	-0.13035908202842816
150	0x3fb8067400ec653a	0.09384846708816932
151	0xbff36efc6ac42f1d	-1.2145961924133595
152	0x3ff6670526d45699	1.400151397397542
153	0xbfcb75184660eb99	-0.21451095043616134
154	0xbfdae8cd59897ed5	-0.42045911544663045
155	0xbfe42789bec5ab07	-0.6298264242189767
156	0xbfc9faa728abcffe	-0.20296182142158153
157	0xbfcc1bbe415fc6a1	-0.21959665481658866
158	0x3feb03baa18e7126	0.8442052035711967
159	0xbfc9ec6dc93282cf	-0.2025277359398587

l_op.conv_layers.2.conv_param.weight f8 [16, 8, 5]
0	0xbfd2c7f1d5c4f96d	-0.29345365405961027
1	0x3fd926e63ea758ac	0.39299923056149555
2	0xbfbd86a6713a4129	-0.11533584846825264
3	0x3fe29c8d6f0b0c98	0.5816104096233117
4	0xbfea89fee090c897	-0.829345167736636
5	0x3fd8f9bd310770a5	0.390242860679573
6	0x3fd248e688b87a22	0.2856994948541872
7	0x3fb9cb92b1e4c775	0.10076252787692204
8	0x3fb815680514671d	0.09407663463607858
9	0xbfe773ab1441cff4	-0.7328696628233033
10	0x3f847b63f551ada4	0.01000097362903924
11	0xbf9e1c34147603c9	-0.029404462574806254
12	0x3faaed7468f0b7c1	0.05259288578996247
13	0x3fe33e5b0b9d8323	0.6013617731915456
14	0xbfe4a0696cb9e312	-0.6445815204197933
15	0xbfa7eea0aadc6790	-0.04674245916085262
16	0xbfb1c72b03a0ecf7	-0.0694453128680158
17	0x3f4b4f04103a955f	0.0008333940354147521
18	0xbfb22a14c4e40b7b	-0.07095460707573224
19	0x3fae1cf985c4e4a5	0.058814809397923974
20	0xbfce65ebbff1017a	-0.23748537895336225
21	0xbfb213722e37c5ce	-0.07060922268262645
22	0x3fd264e88fa9f9c5	0.2874089625328476
23	0xbfb4655d2070992f	-0.07967168848026483
24	0x3fd1c42a67acee62	0.27759800076066743
25	0xbfbfdd739cdb59fa	-0.12447283343804108
26	0xbfcff5439b03a6db	-0.24967236584716698
27	0xbfc4e7c314f87b55	-0.16332281612354885
28	0xbfc60c2019d3ba26	-0.17224503766142724
29	0x3f60517476d49d47	0.001991965741257626
30	0x3fcd65e2dbdb59cc	0.22967181906888212
31	0x3fbecc2245212a34	0.12030233562215004
32	0x3fc75fe18972aa65	0.1826135560161958
33	0xbfdda2593021a810	-0.46303395939196523
34	0x3fe29842755ebaf5	0.5810863773711775
35	0xbfa3bf4d14b270b8	-0.038568886543744296
36	0x3fec27eb6d4a8067	0.8798730024900693
37	0xbfebd1d353c029ea	-0.8693634639506034
38	0xbfb784f728c93114	-0.09187264199971806
39	0x3fb5365dc45e83ad	0.08286081356210558
40	0xbfe795e754293d71	-0.737048782708298
41	0x3ff0555d9e728207	1.0208412350986025
42	0xbfe6428bd9298de7	-0.695623325486335
43	0x3fe602bcaf30ee4d	0.6878341123296622
44	0xbff1b77848b8db9d	-1.1072924462039062
45	0x3fef85f00d8b3a8f	0.9850998177078781
46	0x3fd9cf6ba39bc7e7	0.40328494050402103
47	0x3fc6eccf26c8f65a	0.17910184282111424
48	0xbfc825f9e06a2ddf	-0.1886589380049903
49	0xbfeb770eb88cae42	-0.8582833866580091
50	0xbfc7cc9199d29521	-0.18593044291370922
51	0x3fcdba2d8e0fa1ed	0.23224420010161798
52	0x3fd9fbc7ad90175f	0.4059924311589977
53	0x3fd5e7870717345b	0.34225631420560426
54	0xbfe14149c610f486	-0.5392197483521535
55	0x3fe80352f934a662	0.7504057757661935
56	0xbfc08a0f402bfe15	-0.12921324380293756
57	0x3fc9269d8806c018	0.1964909471694234
58	0xbfd752664d0a75dc	-0.3644042732574613
59	0xbfb949d5275b22d0	-0.09878284655418246
60	0xbfe280e3f222e931	-0.5782336930490485
61	0x3fc28acb0086a174	0.14486062551192058
62	0x3fb9d1bfc62438c7	0.10085676753462557
63	0xbfc1763df35a0eac	-0.1364209593049187
64	0x3fdd6651d030daed	0.45937009173523685
65	0xbfd7b3598ebd0d77	-0.370321645157865
66	0xbfe0e27a305ce755	-0.5276461548412309
67	0x3fc4083ad5c05a71	0.15650115429953673
68	0xbfd5dfb59a3b0705	-0.3417791372449844
69	0x3fb8dd5cb9b87dff	0.09712771925159557
70	0x3fccd849bc88acd8	0.2253505869460699
71	0xbfaa5ca119d2f624	-0.05148795547709664
72	0x3fd5df6c69a33190	0.3417616874328582
73	0xbfde120ede6bea97	-0.46985217781881644
74	0x3fe883bab4e59158	0.7660802395953779
75	0xbfbe1c9913e51bbe	-0.11762387023655571
76	0x40035d88ae2df0c4	2.4206708534021306
77	0xbffdafad6e272b1a	-1.8553900053836458
78	0x3fd6220d158cd7b0	0.3458283148241845
79	0x3fb3010af0928eb4	0.07423466084815794
80	0xbfb952c3afb61b90	-0.0989191345198448
81	0x3fb813dac3c5cf9f	0.09405295638663212
82	0x3fa5168a7dab55ef	0.041187599030006676
83	0xbfe13084ec17c791	-0.5371727572621571
84	0x3f859af16dbf892a	0.010549436723469603
85	0xbfdc6b675a56701d	-0.4440554029658886
86	0x3fc73c67e9cfe37d	0.18153094212155088
87	0x3fca5e92f0401956	0.2060111687753287
88	0xbfc84031280c044a	-0.18945898490349783
89	0xbfad778eaef2ef4d	-0.05755277524573774
90	0xbfd62e880c6960bf	-0.3465900536734913
91	0xbf6de83318e4e7e2	-0.0036507604592346124
92	0x3fb5e364bc047d65	0.08550099935790952
93	0xbfc04cdab2b5a983	-0.12734540678077275
94	0x3fcf4478c3b5ec52	0.24427709156211336
95	0xbfddd42b8b5c8c75	-0.4660748349144293
96	0xbfc2a2bba800f89c	-0.14559121802625874
97	0x3fc4772d081a6e44	0.1598869599882723
98	0x3fd57e5caf2ea4b4	0.3358375273479155
99	0x3fbb6f88e6b7df3b	0.1071706355359056
100	0x3fd3bb2cbfa80a78	0.30829924313017143
101	0xbfc4bb40d709eaaa	-0.16196451663912131
102	0xbfb1ba48b9914b22	-0.06924871950586156
103	0x3fa5643a7381dffc	0.04178030643464578
104	0xbfa3fd4cd468059a	-0.03904190152025962
105	0x3fd2757304773e0b	0.28841853557693814
106	0xbfb02378d9e56041	-0.06304126090742647
107	0xbfa122bf292b9b29	-0.0334682214504965
108	0x3fb4ef288f9688d7	0.08177426820342092
109	0xbfccc08d4a25eeab	-0.22462621803776037
110	0x3fd79496dc7d1aa3	0.36844417125795753
111	0xbfd3231dfedc6c4e	-0.29901838196537234
112	0x3f85366495a0d5fa	0.010357652488987224
113	0xbfb3d065b6ec1010	-0.07739864078399727
114	0x3fb4e07623510931	0.08155001032085775
115	0x3fcf419d9cb911d5	0.24418993141638504
116	0xbfe6d5e224ae4cee	-0.7136088100836824
117	0x3fdb5ca8ed7aa4c9	0.4275305098659144
118	0xbfba2f94d522e145	-0.1022885341980145
119	0x3fcbed1596fdcfb6	0.21817273972157886
120	0xbfd28bfbdf9ceff5	-0.2897939380379733
121	0x3fdbbc5bfee80530	0.433371542865717
122	0x3fce7caa6416d2fb	0.23817949187436924
123	0x3faad79a6ecff25f	0.052426172282115095
124	0xbfd564fe5faf8239	-0.33428916305823325
125	0xbf68652a3a232a3e	-0.0029779267070797746
126	0x3fb76fe3e521e45b	0.09155105918934352
127	0x3fc85e76eb61aa54	0.19038282864797174
128	0x3fa7ce6888887d76	0.04649664560951809
129	0xbfd323dc0543f581	-0.2990636874599986
130	0x3fc3f29aa7246de6	0.1558411899685403
131	0x3fcd8cd1c67ad68d	0.23085996810339218
132	0x3fbe03835b9b0056	0.11724110590421452
133	0x3fbb8bb07bc298dc	0.10760024091232218
134	0xbfcf8a137be917b2	-0.2464012484580827
135	0x3fdd5bf489f0a863	0.45873750181875134
136	0xbfd1a5926cc1d968	-0.2757307111818563
137	0x3fc9061d6465f911	0.19549910928976336
138	0x3fa508193bfbbf3f	0.04107741219729499
139	0xbfbfb0b4cf64fbc3	-0.12379007399884671
140	0x3f97495ff7a057d1	0.02274084042445407
141	0x3f80d3fbd22642af	0.008216826773407375
142	0x3fc63aba9945f7da	0.17366726383255476
143	0x3fc1b1a3d53666c9	0.13823364172713173
144	0x3fabf1b0c3f4a791	0.05457832710301525
145	0xbfc06c954b1f0b1b	-0.1283136956027072
146	0x3f74bb11be841564	0.005061215699475017
147	0xbfb236a764a82c06	-0.07114645202106837
148	0xbfcf18ae83d41bed	-0.24294072567883465
149	0xbfc4355ff1ce03f8	-0.15787886912224258
150	0x3fc5ecd8ee1b4b42	0.1712905085210768
151	0xbfc6c14a2d0e903c	-0.17777373504680039
152	0x3f962e45f45f2d54	0.021660893478651147
153	0x3fcd7479ad53f9ce	0.23011704409868944
154	0x3fbf05ff8243e7eb	0.12118527345947398
155	0x3fc92e776f66b133	0.19673054637440543
156	0xbfab9eee9d40d247	-0.053946930595348656
157	0xbfd46af8514126a8	-0.3190289300442637
158	0xbfe092cd82e4246c	-0.5179202610462545
159	0x3fcdf425d6d23a47	0.23401329984013072
160	0x3fbde7dc5818a9c7	0.11681916380681577
161	0x3fb7a7e7769cf921	0.09240576406316282
162	0x3fce1bbbc901cdb8	0.23522136034772045
163	0x3fc5272285c04b83	0.16525680094545345
164	0xbfc3c54c9e3548e8	-0.15445859646803872
165	0xbfb7f3afd9d2fa6b	-0.09356211727115642
166	0x3fd08929a1b02a2d	0.2583717421518113
167	0x3fb7066475bb23b3	0.08994129061024018
168	0xbfc16ef21d60c2c1	-0.1361982959220054
169	0xbf9a442aea40688e	-0.025650663898070074
170	0x3fc6d85e418e793a	0.1784780330753593
171	0x3fc21f83685e7058	0.1415867099393633
172	0x3fd0f3fb795dd1bc	0.26489149906344855
173	0x3fbbdd2cc36e6ce5	0.10884361048958942
174	0xbfcc059817b72e8d	-0.21892071874605215
175	0x3fcc23205baeca75	0.21982197262476047
176	0xbfc8e56d6a534d77	-0.19450156871480903
177	0x3f53a59447932b18	0.001199145130430684
178	0x3fb4d213b57f5dbd	0.08133052044956109
179	0xbfba0183a2ef99db	-0.10158560493400819
180	0x3fc0955d2aecf9ba	0.1295582255933832
181	0x3fb2f7789da57296	0.07408861016069532
182	0xbfb31eb0eefefe25	-0.07468705973496322
183	0x3fcbacd913f7c944	0.21621240115161744
184	0x3fc1796a0742a55c	0.13651776651867464
185	0x3f927e56547ecdeb	0.018060063273606913
186	0xbfa3edee2118140b	-0.03892463830928968
187	0xbfc8211f6cba5825	-0.18851082619647844
188	0xbfc38e24276a22e3	-0.1527753059820248
189	0xbfb9bbab3be577c6	-0.10051984989465187
190	0x3fd5d770315983c2	0.34127430743506804
191	0xbfd034ca83ca2a83	-0.25322211141671164
192	0xbfaba0bc15db3ca3	-0.05396068350602803
193	0x3fd9a6b2acf18f99	0.40079943551085645
194	0x3fc5dc67cc78fe35	0.17078874095931132
195	0xbfc696b7a75a407e	-0.17647452994834006
196	0x3fc06042a43b3be1	0.1279376317893073
197	0xbfddcee0ea4641b3	-0.46575186613429337
198	0xbfda3d36e5214aa3	-0.409986232528505
199	0x3fc38d8bec2fd98a	0.15275715858997457
200	0x3fd8d176bf34ae14	0.38778465912284443
201	0xbfdb4e49b1545878	-0.42665331189471756
202	0x3fd9002d10c50cb0	0.3906357444540829
203	0xbfd22e7395fbb74b	-0.2840851750068977
204	0x3fc5dc6a1acec936	0.17078901585552736
205	0xbfdb2749d5f054a8	-0.42427297489605076
206	0xbfc247b0ab01d8ce	-0.14281280851327555
207	0x3fae822d3fcd4080	0.059586919821073
208	0x3fda98fd675915de	0.41558775990082875
209	0xbfc42dbe430aea12	-0.15764597199979896
210	0xbfc9061c5888ce6f	-0.19549898455590006
211	0x3fc1e63eeeb3e9ca	0.1398390450993488
212	0x3fceda6f22603f9b	0.24104108026994883
213	0xbfa4dee5a7c4e27f	-0.040763069848655846
214	0x3fb6bb82a6c1c3e3	0.08879868098462355
215	0xbfe3ec3dec2b57e7	-0.6225881207162701
216	0x3fb4a2ed667bec9c	0.08061107399037087
217	0xbfc09c6356c4d323	-0.12977258431205838
218	0x3fd99c9d459c3760	0.4001839809214882
219	0x3fc11017f66bcfb2	0.13330363781244398
220	0x3fc11cf5b56df631	0.13369628294815208
221	0x3fb3fdadc295ea46	0.07808958054185053
222	0xbfc3edd6338fc3df	-0.15569570081382175
223	0xbfc32036de1837a0	-0.1494206032224925
224	0x3fdba13b118cf81c	0.43171574319774364
225	0x3fde2b632dc07e2d	0.4713981577678819
226	0x3fd501c65deae550	0.3282333295024573
227	0xbfca9809930bf2e5	-0.20776481323254994
228	0x3facd76e008fa061	0.05633109814499516
229	0xbfcac871646a8184	-0.2092420330345811
230	0x3fd5c7b4304934db	0.34031395640779544
231	0xbfbc318b00e3dd37	-0.11013096591692749
232	0xbfdd421e4309089d	-0.45716053530134976
233	0x3fd773d811765594	0.36644555764481734
234	0xbfd93241cf2be4e1	-0.3936924479636002
235	0x3fdd777ef8f0bcd6	0.46041845617851374
236	0xbffef07ecf73e2d2	-1.9337146857853225
237	0x3ff6e8b009815446	1.4318085070892876
238	0xbff18a56f7c450e8	-1.096274345244689
239	0x3fe1630604a0066c	0.5433378305753656
240	0xbfc03038e1609012	-0.12647162441965115
241	0x3fdcfb131dbec8cb	0.452824381874177
242	0xbff9dda7462735fc	-1.616614603076754
243	0x3ff6219c9736f6b8	1.3832059771370222
244	0x3fe1c67da8384bfb	0.5554798398537736
245	0xbfd11886e1365c21	-0.267122001584939
246	0x3fb9c0fdf8258896	0.10060107525126435
247	0xbff1d417d86de4de	-1.1142805532711502
248	0x3febd06d87330e77	0.8691928520788242
249	0x3fd51fc925eb9eea	0.330065047294268
250	0xbfe2bfe9e654b743	-0.5859269617701347
251	0xbfc0829f2f712fff	-0.1289862615252559
252	0xbff34cce13779528	-1.2062512169298518
253	0x3ff6898e166c1572	1.4085827709071421
254	0xbfdc80506a16accf	-0.4453316722890123
255	0x3fa31a726e04dafd	0.03731114953045809

mu.0.weight f8 [16, 1]
0	0xbfd491d980000000	-0.3214019536972046
1	0x3fc9afa686826a7c	0.20067292754977817
2	0xbfbd7c5c2afdd528	-0.11517883348081581
3	0xbfb1ed75b617d563	-0.07002959914810485
4	0xbfd7a164a7f0cc5d	-0.3692256584210492
5	0x3fca0a99f5096f0d	0.20344852890672663
6	0xbf6689e603a77f43	-0.0027513020006465785
7	0xbfd41e355cd16bc0	-0.31434377731573804
8	0x3fb0ab7a00000000	0.0651165246963501
9	0x3fe373e919db2613	0.6078992371560069
10	0x3fc2c59e270cbbdb	0.1466558161423269
11	0x3fe5307857c92fd4	0.6621667589729392
12	0xbfd2b00cb4ca9797	-0.2919952168980386
13	0xbfe3fae7a5cbd730	-0.6243780363281299
14	0x3f5ba6a5f472b33a	0.0016876812604024864
15	0x3fe4c1477ae075ca	0.6485936546266029

mu.0.bias f8 [16]
0	0xbfeb78ee40000000	-0.8585120439529419
1	0x3fd78956d4097029	0.36775751787877425
2	0xbf66b0ac51d7df77	-0.0027697911852974616
3	0xbfc43589937ceb1a	-0.15788383199272787
4	0xbfe839648a94bb87	-0.7570059496555225
5	0x3fccaa5fcda4fd10	0.2239494089244336
6	0xbfabf9f646b11e1c	-0.05464143383920492
7	0xbfd09c2202d1a415	-0.2595295932320039
8	0xbfe5a42180000000	-0.6762855052947998
9	0x3fedba49e22900b7	0.9289903084936871
10	0xbff79bcd3293fc0c	-1.475537488527837
11	0x3ff4247afc74f869	1.2589063512418994
12	0xbfe7b6d49c588f7c	-0.7410681775695447
13	0xbfa73e8529870a64	-0.04539886600425261
14	0xbf973d1e9b3a984b	-0.02269409010354932
15	0x3fdb581f11418b5a	0.42725350079688484

mu.2.weight f8 [16, 16]
0	0xbfa3a12300000000	-0.03833875060081482
1	0xbf77692f35409eb7	-0.005715546041791412
2	0xbf37e4698f79be3c	-0.00036456658515413346
3	0xbfd5f85936035c2c	-0.34328298830718285
4	0xbfb896c880000000	-0.09605076909065247
5	0xbfc76884984ece88	-0.18287713467508504
6	0xbfc7d17e9959a151	-0.18608076560782164
7	0x3fb2e308b370946f	0.07377676373342167
8	0xbfb7a99900000000	-0.09243160486221313
9	0x3fb56835a0b10412	0.0836213605225711
10	0x3fb4f83b437e2819	0.08191271207593366
11	0x3fd051e45f369bbe	0.25499829576659383
12	0xbfc127780dcf0e61	-0.1340169970918508
13	0xbfc472e7e4be5f53	-0.15975664776919504
14	0x3fb4d4bf98cf6241	0.0813712833472744
15	0xbfd7bc77f71db104	-0.37087821133060594
16	0x3fca4f6940000000	0.20554843544960022
17	0xbfd2b95f13c4dac5	-0.2925641720825463
18	0xbfa2a8468991bf3b	-0.03644009045899429
19	0x3fc381777e1a09bc	0.15238851220426664
20	0x3fb521358ef84cec	0.08253798237301496
21	0xbfb1ae84d6e710ae	-0.06906919714589563
22	0xbfd9cea20081ae03	-0.4032368664690866
23	0x3fb2bcc7d3e4ebe8	0.07319306300352901
24	0xbfa5e4e300000000	-0.04276189208030701
25	0xbf768c282208faf3	-0.0055047576611844005
26	0x3fc4f1edab8eeabb	0.16363306881779302
27	0x3fc662b94d6a263e	0.17488781242382062
28	0xbfd86e813f529df4	-0.3817446821580852
29	0x3fab0ad653f28a93	0.052817056415070195
30	0xbfab44a5b1138f6d	-0.05325811182572591
31	0xbfb02f912783f695	-0.06322581495984488
32	0x3fa4d0a500000000	0.04065433144569397
33	0x3fb3ddc5912dfa06	0.0776027183000921
34	0x3fcfaf0f033842ff	0.24752986581054157
35	0xbfbdd99d9099b5b1	-0.11660179882320311
36	0x3f7e9fd800000000	0.0074766576290130615
37	0x3fbcbec0c498fa09	0.11228565978760953
38	0x3f988c85c8e875ad	0.023973551166013674
39	0xbfb023a88d983a55	-0.06304410416508095
40	0x3fc0f78c80000000	0.13255459070205688
41	0x3fd6dbd6031f71d5	0.35716772370304045
42	0xbfaa762658df80ca	-0.05168266138912399
43	0x3fe0d661e228f767	0.5261697213352193
44	0x3fc1af47657a0999	0.13816158728520803
45	0x3fcf4307a572591d	0.24423308924151224
46	0xbfbd1c13426c6dca	-0.11370964404743869
47	0x3fd47e8a5dce2efe	0.3202234188145069
48	0x3fced55240000000	0.24088504910469055
49	0x3fd13fda8040d8b6	0.269522309539194
50	0xbf9a64eb51bcbd5c	-0.025775601257178024
51	0x3fce8f5d2e034eda	0.23875012156223968
52	0x3fa391f4bf1c53aa	0.03822293122190186
53	0x3fc46ade323849d4	0.15951135112898263
54	0x3fd56f33208e2934	0.3349120920107851
55	0x3fd208d347b722ba	0.28178865436033684
56	0xbfc8f1f300000000	-0.19488370418548584
57	0x3fdc25a83e7acceb	0.43979841329128416
58	0xbfaa0cdb56c4fb4b	-0.05087933954427245
59	0x3fd2af8282003726	0.2919622678317516
60	0xbfc614eaca80f5f6	-0.17251334083441322
61	0xbf81748ff4134a40	-0.008523106227959265
62	0x3fbde0c00b85691c	0.11671066552427017
63	0x3fc58fbb1e47d6af	0.16844881990953328
64	0xbfa4388e00000000	-0.03949397802352905
65	0xbfc6434780880f9b	-0.17392820144607132
66	0x3f940a427703864f	0.019570387376808104
67	0xbf231f09077cf739	-0.00014588341923088015
68	0x3fb133111d5b1800	0.06718546835608663
69	0xbfc7b61f369e010b	-0.18524542013984333
70	0x3fa53ad3a114547e	0.04146443692494815
71	0xbfcf7387696631a5	-0.2457131638187892
72	0x3f945aea00000000	0.01987805962562561
73	0x3fbb42d8593e5783	0.10648872546002335
74	0xbfcc44df6d30d2ff	-0.22085182982996085
75	0xbfb7e2d5e2eea894	-0.09330498495424627
76	0xbfd0c7b619ff47ea	-0.2621894124869174
77	0xbfd6fc929d957187	-0.3591658152488652
78	0x3f902130a460250e	0.015751609833420104
79	0xbfa74de7ab07d347	-0.045516242625956375
80	0x3fa3ecc200000000	0.03891569375991821
81	0x3fa6981ac6b8a1c8	0.044129215963326696
82	0xbfb2b6a730f0bef8	-0.07309956497988057
83	0x3fc9a0a680000000	0.2002151608467102
84	0x3fc9441700000000	0.19739043712615967
85	0xbfc9dec0c3f9a976	-0.20211038178542723
86	0xbfc8b613c0000000	-0.19305655360221863
87	0xbfd27f8adbadf44c	-0.28903457120015186
88	0xbfc18961c0000000	-0.1370050609111786
89	0xbfda88a651ef0f36	-0.4145904350409525
90	0x3faa1b39554a69c9	0.05098895231386142
91	0xbfd6141b11c75ae5	-0.344977156984369
92	0xbfc02aff00000000	-0.12631213665008545
93	0xbfbb0089d2be5ece	-0.1054769649039102
94	0xbfc8fe2b13715502	-0.19525659989691496
95	0x3f9fbca427cc7279	0.03099304669295797
96	0xbfb7b86200000000	-0.09265720844268799
97	0xbfd9d5603daee268	-0.40364843391174654
98	0x3fa50f61ccee4d67	0.04113298060033337
99	0xbfb5d7c605e6458e	-0.08532369274168713
100	0x3fba2bd679f29e3a	0.10223141171683717
101	0xbfbed4e0415fdb34	-0.12043572994285229
102	0x3fc1422cbf3bea9d	0.1348319944152835
103	0xbfcad7d21d22a02c	-0.20971132681484173
104	0x3fc4925640000000	0.16071584820747375
105	0x3fbf9369f47d701d	0.12334310740465111
106	0xbfb3f4925ac475dc	-0.07795061794282482
107	0x3fc1a8d592120125	0.1379649127229722
108	0x3fb3c9d358609d55	0.0772983637585772
109	0xbfa0d14b7525f451	-0.032846792269062626
110	0x3fbb85530b417a15	0.10750311875151682
111	0xbfc3ce8d01467e4c	-0.1547409301974646
112	0xbfcbe8ee00000000	-0.21804594993591309
113	0xbfbcb696643e2320	-0.11216106364566913
114	0xbfc6f805d4810939	-0.17944405437635583
115	0xbfd188673cc71318	-0.27395039496723106
116	0x3fb5a50e427dcf9a	0.08454980014158622
117	0xbfdf447a1196dcfa	-0.48855449407297125
118	0x3fa20dfc1a9d2d66	0.035262945412422295
119	0x3fa456759cf2a557	0.03972213307253963
120	0x3fb16cae80000000	0.0680646002292633
121	0xbfb87d12ff8bf537	-0.09565848101552353
122	0x3fc8cbf34fa81317	0.1937240733097034
123	0x3fbfea70209efacd	0.12467098995601163
124	0xbfc88c80f8cac676	-0.19178783557940776
125	0xbfc35566a34235f2	-0.15104372951138562
126	0x3fc73f64899b595e	0.1816220924290048
127	0xbf82d2bbb4c4da54	-0.00919100423253131
128	0xbfaccb0000000000	-0.05623626708984375
129	0x3fa5d119ae707379	0.042610933822493764
130	0x3f5b6f177048ce7b	0.0016744355099377595
131	0x3fc6881d0362c5fd	0.1760288492710486
132	0xbfc4146b81f1988e	-0.1568731674662484
133	0xbfa1c042e4688c68	-0.0346699622935141
134	0x3f95a7b08fd3bab3	0.02114749791956667
135	0xbfb78ae492c49235	-0.09196308692168816
136	0x3fc5d09f80000000	0.17042917013168335
137	0x3f9c006e00000000	0.027345389127731323
138	0xbfcd934ac0000000	-0.23105749487876892
139	0xbfaaf4d532311e03	-0.0526491760033956
140	0xbfc1c942a5e61abc	-0.13895447826890528
141	0xbf54db84b410c225	-0.0012730403834774276
142	0xbf9dc05400000000	-0.029053986072540283
143	0xbfcfbdecc0000000	-0.24798354506492615
144	0xbfa7532900000000	-0.045556336641311646
145	0x3f8b4f59c5bf6e98	0.013334943148883213
146	0x3fb2e275aa277de1	0.07376799968869065
147	0x3fd14bee6574f2dd	0.27025947482961304
148	0x3f8374ffe7f08963	0.009500502839789154
149	0x3fbd49dab3d94d5f	0.11440817728844398
150	0x3fa6242befa41093	0.043244717600857595
151	0xbfc35c6d8190c743	-0.1512581713337174
152	0x3fae140600000000	0.058746516704559326
153	0x3fe15e834b629591	0.5427872154584056
154	0xbf84c620a604ea1c	-0.010143523279670545
155	0x3fceb8b9806124a7	0.24001234787491407
156	0x3fb1be3a7e6915d2	0.06930890642350754
157	0x3fd392fb834ffc1b	0.3058460981700947
158	0xbfb859512bd9c831	-0.09511287041257856
159	0x3fda58111df25520	0.41162517475579996
160	0xbfa0601400000000	-0.031983017921447754
161	0xbfd51e4fefe5326a	-0.32997511317515793
162	0xbfc009efc4cfc6bc	-0.12530324087088285
163	0x3fac442d187556ab	0.05520764277995956
164	0xbfb9be053ad2ebca	-0.10055573164110779
165	0x3f9a387bff98d445	0.025606095767404708
166	0xbfceaa05c07d6229	-0.23956367396273606
167	0x3fa0cd0fe2b8ccd9	0.03281449930764219
168	0x3fcb47f600000000	0.2131335735321045
169	0x3fb6393198a2cfae	0.0868102071424903
170	0x3f920aa2a4facead	0.017618695563853027
171	0x3f96c8cc4b9e96d7	0.022250358691642127
172	0xbfca6d0b4a372ef5	-0.2064527618771234
173	0xbfc9e2f7a8753449	-0.20223899579505858
174	0xbfb200e2cda54559	-0.07032601853031419
175	0xbfc7ce5d6d27c757	-0.18598525838711552
176	0xbfc7a2c680000000	-0.18465501070022583
177	0x3fc8e215b3d6877d	0.19439955979492743
178	0x3fb80e02ba51d09f	0.09396378563707451
179	0xbfd1ed374bed1fc0	-0.28010351576494585
180	0x3fbcbfdbf60b803b	0.11230253941494166
181	0xbfb7dedde17cf047	-0.09324442629889616
182	0x3fb1f9cc0aaf3939	0.07021785031176798
183	0x3f98a889d12566f7	0.024080422773613965
184	0x3fcd6b34c0000000	0.2298341691493988
185	0x3fb7dbe6fb5348e0	0.09319919238922436
186	0x3fc5474ab1b7a9c0	0.16623815229043082
187	0x3fde62760a9d000f	0.47475958858922324
188	0xbfd60bbccbcf2c5c	-0.34446639922379574
189	0xbfd122cad209d844	-0.2677485514790343
190	0x3fbc2986ac3646cb	0.11000863747019733
191	0x3fcf2436e3b87128	0.24329267615474603
192	0xbfbfcbc900000000	-0.12420326471328735
193	0xbfcd3d60ac702072	-0.22843559665512064
194	0xbfc2df69337e62a0	-0.14744296087589692
195	0x3f92c75e0c6c087d	0.018338651188067424
196	0xbfc4f5d013b16afc	-0.16375161134313732
197	0xbfac3b1539da6414	-0.05513826686109993
198	0x3fbea39eab1bb964	0.11968413999031707
199	0xbfd14b13e1abb5a2	-0.27020737684400775
200	0x3f63d70000000000	0.002421855926513672
201	0xbfcb24b0ef68b702	-0.21205722513098385
202	0x3f97a859d0515211	0.02310314496965488
203	0x3f76fa8836fdf9f3	0.0056100197688224605
204	0x3fa56cbb003f9546	0.041845172672575745
205	0xbfca4081ad70887d	-0.20509358376245138
206	0x3fc132a09914eadb	0.13435752367680362
207	0xbfd250efb6ee56d9	-0.286189964908187
208	0xbfb2957380000000	-0.07259294390678406
209	0xbfc1d0eddfab73a3	-0.13918851300595944
210	0xbfd05bf2e3dda236	-0.2556121087314155
211	0xbf3ea5a401c94c4e	-0.0004676366241131478
212	0xbfc5b61240000000	-0.1696188747882843
213	0xbfb9ed38767fc75d	-0.10127594845814998
214	0xbf880591abeb3f66	-0.011729372080850186
215	0xbf79b3a810f85803	-0.006274849423354214
216	0xbfcafc4700000000	-0.2108238935470581
217	0xbfd01c0c635ac7b0	-0.25171193792913993
218	0x3fc4f63ae2fe284f	0.1637643440593046
219	0x3fc7dcb853c13987	0.1864233406981379
220	0xbfcc655ac0000000	-0.22184309363365173
221	0x3faeb58b2cea2814	0.05997881816172437
222	0xbfc5f92e3c210498	-0.17166688858018087
223	0x3f84c591d11ee9c5	0.010142459101065602
224	0x3fcdc57d80000000	0.23258942365646362
225	0x3fcccac3ab199c97	0.2249378762673799
226	0xbfca96e9b2f05aa2	-0.20773049580812591
227	0xbfb1ab840e1cda95	-0.06902337402866927
228	0x3fb2358569b3ad8a	0.0711291678487013
229	0x3fb0726387d9826b	0.06424543444291834
230	0x3fbfb30049d86907	0.12382509043564847
231	0xbfd28ecc7016e58f	-0.28996573396906283
232	0xbfadc9a200000000	-0.05817896127700806
233	0x3fd1b5a6bbfa4c98	0.2767121158332855
234	0x3fa9b73ea044b589	0.05022617060090357
235	0x3fe594233fe4b9d5	0.6743332145613815
236	0xbfd0963e14f4d7b0	-0.2591700749065877
237	0xbfd06aba1b25f489	-0.2565140977020027
238	0x3fa1cfad67ad01fd	0.03478757753919479
239	0x3fd6eb0020ba6695	0.3580932921991942
240	0xbfcc0ef640000000	-0.21920660138130188
241	0xbfca31dd496ee3c1	-0.20464674077609682
242	0xbfd02197bf913b4c	-0.2520503397726557
243	0xbfc8dbbfc5c4ae56	-0.19420621067671345
244	0xbfa16905625a7b0b	-0.03400437188724056
245	0xbfd140faafc1a089	-0.2695910183306372
246	0xbf543020206bdf2b	-0.0012321771370675343
247	0xbfc9116b64335c37	-0.19584410088165935
248	0xbfc4324940000000	-0.1577846109867096
249	0x3fc9478f2cb458a2	0.19749631579242527
250	0xbfb0f28bd5b9cf48	-0.06620096176066881
251	0xbf948e05828a2378	-0.020073019115929708
252	0xbfdbe5ec496944fe	-0.43590838593543413
253	0xbfc63c279695f796	-0.1737107739717742
254	0xbfcc7df305d6f192	-0.22259366784227247
255	0x3fbe8e2b4f12ca49	0.11935682945731076

mu.2.bias f8 [16]
0	0x3fd2376218645560	0.2846303213312549
1	0xbfd3c55ed3f17866	-0.30892153451521265
2	0x3fcb1728e71efd9d	0.2116442802925861
3	0xbf9889e68c31fcff	-0.023963548952903754
4	0x3fbaab3c8ee17971	0.10417536247539318
5	0x3fbeeb01fd3a06a1	0.12077343399325936
6	0x3fa425d8c7d11186	0.03935124816101436
7	0xbf729e1b798df68e	-0.004545314143681657
8	0xbfbbf0b6d88cbe4c	-0.10914175783977348
9	0xbfa485aa8ad22939	-0.04008229202834674
10	0xbfbd70d684dcff08	-0.11500302070362178
11	0x3fcb34ef209074a0	0.21255292024662698
12	0xbf89715f3bb1c96f	-0.012423271188002542
13	0xbfbe059f654fa824	-0.11727329467217423
14	0x3fd5c875627218a6	0.34036001790844705
15	0xbfc2a45d7ad229f2	-0.1456410264693911
