trained_models/CMFoE/checkpoints/checkpoint_10001.pth (torch, 18958 bytes, 14 tensors)

lamb f8 []
0	0x40170b93b302d671	5.761305615471074

Q_param f8 [16, 4, 4]
0	0x3fcf44e300000000	0.24428975582122803
1	0x3fdc39c6c0000000	0.44102638959884644
2	0xbfd22f4cc0000000	-0.28413695096969604
3	0xbfcf9a9100000000	-0.24690449237823486
4	0xbfc2814080000000	-0.14456945657730103
5	0x3f99f8cc00000000	0.025363147258758545
6	0x3fd334d480000000	0.3000994920730591
7	0xbfd24481c0000000	-0.2854313254356384
8	0x3fd0055b80000000	0.2503269910812378
9	0xbfc6efb880000000	-0.17919069528579712
10	0x3fd354dd00000000	0.30205464363098145
11	0xbf984ef000000000	-0.023738622665405273
12	0xbfdc08e780000000	-0.438043475151062
13	0xbfd19b9d40000000	-0.2751229405403137
14	0xbfd728fa00000000	-0.3618760108947754
15	0x3fcfbdd980000000	0.2479812502861023
16	0xbfd5752180000000	-0.3352741003036499
17	0xbfa5545800000000	-0.04165911674499512
18	0x3fbb9de300000000	0.10787791013717651
19	0xbfd18c7300000000	-0.2741973400115967
20	0x3fc2764b00000000	0.1442350149154663
21	0xbfdf3edc40000000	-0.4882116913795471
22	0xbfd6e57200000000	-0.3577542304992676
23	0xbfdcfef680000000	-0.45306169986724854
24	0xbfc35bca00000000	-0.15123867988586426
25	0xbfc750a600000000	-0.18214869499206543
26	0x3fb2542900000000	0.07159668207168579
27	0xbfb7ab4700000000	-0.09245723485946655
28	0x3fce15d300000000	0.23504102230072021
29	0x3fdd566340000000	0.45839768648147583
30	0x3fc6f66f00000000	0.17939555644989014
31	0xbfc936c380000000	-0.19698375463485718
32	0xbfddf6df00000000	-0.46819281578063965
33	0x3fc72e5100000000	0.1811009645462036
34	0xbfcfb59500000000	-0.24772894382476807
35	0x3fd048b700000000	0.2544381618499756
36	0x3fd5643a80000000	0.33424246311187744
37	0x3fc8afa500000000	0.19286024570465088
38	0x3fde06a440000000	0.46915537118911743
39	0x3fde64bb80000000	0.47489821910858154
40	0x3fbb1a4b00000000	0.10586994886398315
41	0xbfd750fe00000000	-0.3643183708190918
42	0x3fdc971240000000	0.4467206597328186
43	0xbfce5e2380000000	-0.23724788427352905
44	0xbfce3b0a80000000	-0.23617678880691528
45	0x3fdac6e400000000	0.41838932037353516
46	0x3fd8cb3f00000000	0.3874051570892334
47	0x3fc3567280000000	0.15107566118240356
48	0x3fa00c0c00000000	0.03134191036224365
49	0xbfdaead4c0000000	-0.42058295011520386
50	0xbfaa92e800000000	-0.051902055740356445
51	0x3fdeb129c0000000	0.4795631766319275
52	0x3fc04c5480000000	0.12732940912246704
53	0x3fa5eb1000000000	0.04280900955200195
54	0xbfba944f00000000	-0.10382550954818726
55	0xbfc6527300000000	-0.17439115047454834
56	0x3fd3129e40000000	0.2980113625526428
57	0x3f9f930400000000	0.03083425760269165
58	0x3fd4d18100000000	0.3252871036529541
59	0xbfb6a7e400000000	-0.08849930763244629
60	0x3fcbf65200000000	0.21845459938049316
61	0x3fca6ad280000000	0.20638495683670044
62	0x3fb4695200000000	0.07973206043243408
63	0x3fd41ba1c0000000	0.3141865134239197
64	0x3fd40d7bc0000000	0.3133229613304138
65	0x3fdda95b00000000	0.46346163749694824
66	0x3fd899d000000000	0.3843879699707031
67	0xbfc05d5580000000	-0.1278483271598816
68	0xbfdb178340000000	-0.4233101010322571
69	0x3fb7669000000000	0.09140872955322266
70	0xbf71e02000000000	-0.004364132881164551
71	0xbfc0b15d00000000	-0.13041269779205322
72	0xbfb56f2800000000	-0.08372735977172852
73	0x3f9814b000000000	0.023516416549682617
74	0x3fd75920c0000000	0.3648149371147156
75	0x3fc3f39180000000	0.15587061643600464
76	0xbfc6b9dd80000000	-0.1775471568107605
77	0xbfca518280000000	-0.20561248064041138
78	0xbfbfb26200000000	-0.12381565570831299
79	0xbfc8bc7700000000	-0.19325149059295654
80	0x3fdcc66f00000000	0.4496114253997803
81	0x3fd0f2dac0000000	0.26482266187667847
82	0x3fdce52d40000000	0.45148783922195435
83	0x3f5a298000000000	0.0015968084335327148
84	0x3fb9d05a00000000	0.10083544254302979
85	0x3fc6316480000000	0.17338234186172485
86	0xbfde4a29c0000000	-0.4732765555381775
87	0x3fa6dc2400000000	0.04464828968048096
88	0xbfa11fb400000000	-0.033445000648498535
89	0xbfd1f0e0c0000000	-0.2803270220756531
90	0xbfd8d48f80000000	-0.3879736661911011
91	0x3fdc542b00000000	0.44263720512390137
92	0x3fda04a300000000	0.40653300285339355
93	0x3fcda97880000000	0.23173433542251587
94	0x3fde8936c0000000	0.4771248698234558
95	0xbfc9f8c180000000	-0.20290392637252808
96	0xbfb61bc700000000	-0.0863613486289978
97	0x3fc83b4980000000	0.18930929899215698
98	0xbfb5262500000000	-0.08261328935623169
99	0xbfb91e3900000000	-0.0981174111366272
100	0xbfda733100000000	-0.413280725479126
101	0x3fc131bf00000000	0.1343306303024292
102	0xbfd356a600000000	-0.30216360092163086
103	0x3f929e9800000000	0.018183112144470215
104	0x3fdf330000000000	0.48748779296875
105	0xbfc3b33f00000000	-0.1539076566696167
106	0xbfc42c1a00000000	-0.15759587287902832
107	0x3fd34e56c0000000	0.30165642499923706
108	0xbfc787a180000000	-0.18382662534713745
109	0xbfa5fc1000000000	-0.0429387092590332
110	0x3fdde12f80000000	0.4668692350387573
111	0xbfca3d0280000000	-0.20498687028884888
112	0xbfd6e4a400000000	-0.35770511627197266
113	0xbfd1e89a00000000	-0.27982187271118164
114	0xbfc1be6480000000	-0.13862282037734985
115	0xbfce5e3000000000	-0.23724937438964844
116	0xbfd09b16c0000000	-0.25946587324142456
117	0x3fc9da3a00000000	0.20197224617004395
118	0x3fb5c08500000000	0.08496886491775513
119	0xbfc47be380000000	-0.1600307822227478
120	0xbfd8dc7540000000	-0.38845568895339966
121	0xbfc426aa00000000	-0.15742993354797363
122	0xbfcb02b080000000	-0.2110195755958557
123	0xbfc4d3aa00000000	-0.16270947456359863
124	0xbfdcde3100000000	-0.451061487197876
125	0x3fbb932e00000000	0.10771453380584717
126	0xbfd782db00000000	-0.36736178398132324
127	0xbfd8ebec40000000	-0.38939958810806274
128	0xbfda2522c0000000	-0.4085165858268738
129	0x3fcab66a00000000	0.20869183540344238
130	0xbfd343cd80000000	-0.30101335048675537
131	0xbfca6a8280000000	-0.20637542009353638
132	0x3fd9153900000000	0.3919203281402588
133	0x3fd0fda8c0000000	0.2654821276664734
134	0x3fd2593880000000	0.28669559955596924
135	0xbfde625b80000000	-0.4747532606124878
136	0xbfd6f27b40000000	-0.35854989290237427
137	0xbfc8292400000000	-0.18875551223754883
138	0x3fda6f6440000000	0.41304880380630493
139	0x3faa305c00000000	0.05115020275115967
140	0xbfd7eec600000000	-0.3739485740661621
141	0x3f69a60000000000	0.0031309127807617188
142	0xbfd8da7cc0000000	-0.3883354067802429
143	0xbfbc0b7200000000	-0.1095496416091919
144	0xbfc1993100000000	-0.137487530708313
145	0x3fdbb38000000000	0.432830810546875
146	0x3fc3d2ba00000000	0.15486836433410645
147	0xbfb651cb00000000	-0.0871855616569519
148	0x3fb59f7500000000	0.08446437120437622
149	0xbfc2797f00000000	-0.14433276653289795
150	0x3fc9254780000000	0.19645017385482788
151	0x3fc950eb00000000	0.19778192043304443
152	0x3fc12fdc00000000	0.13427305221557617
153	0xbfc8f21b00000000	-0.19488847255706787
154	0x3fdb4d02c0000000	0.42657536268234253
155	0xbfb27ab700000000	-0.0721849799156189
156	0xbfc8ea9080000000	-0.1946583390235901
157	0x3fd40ac3c0000000	0.31315702199935913
158	0x3fda14f1c0000000	0.4075283408164978
159	0x3fdfd85940000000	0.4975798726081848
160	0x3fc2f5e580000000	0.1481291651725769
161	0xbfc5d13480000000	-0.17044693231582642
162	0x3fd040a6c0000000	0.2539460062980652
163	0x3fdb745d00000000	0.42897725105285645
164	0xbfdf62fe40000000	-0.4904170632362366
165	0xbfafb70e00000000	-0.06194347143173218
166	0xbfd5d2a940000000	-0.34098273515701294
167	0x3fb7daa300000000	0.09317988157272339
168	0x3fca782c80000000	0.206792414188385
169	0xbfba717900000000	-0.10329395532608032
170	0xbfa56a8e00000000	-0.04182857275009155
171	0x3fccce9d80000000	0.22505539655685425
172	0xbfb5834f00000000	-0.08403486013412476
173	0xbfdadf7940000000	-0.41988974809646606
174	0x3fd99ab6c0000000	0.4000679850578308
175	0xbfd01b2700000000	-0.25165724754333496
176	0xbfac1fb000000000	-0.054929256439208984
177	0x3fa825c600000000	0.047163188457489014
178	0xbf9ec50400000000	-0.0300484299659729
179	0xbfde1a1980000000	-0.4703429937362671
180	0x3fcd5cfa80000000	0.22939997911453247
181	0xbfcd122100000000	-0.22711575031280518
182	0xbfd098dc00000000	-0.25932979583740234
183	0x3fbe94c800000000	0.11945772171020508
184	0xbfd0b31800000000	-0.26093101501464844
185	0xbfcd940600000000	-0.2310798168182373
186	0xbfc5909680000000	-0.1684749722480774
187	0xbfc80b1a00000000	-0.18783879280090332
188	0xbfcaba9280000000	-0.2088187336921692
189	0xbfc1428880000000	-0.13484293222427368
190	0x3fc0a1ce00000000	0.12993788719177246
191	0xbfd9e51d00000000	-0.40460896492004395
192	0xbfd35e74c0000000	-0.3026401400566101
193	0x3f7de22000000000	0.007295727729797363
194	0x3fb1ccfc00000000	0.0695340633392334
195	0x3fd1ac6140000000	0.2761462330818176
196	0xbfd67a6bc0000000	-0.3512219786643982
197	0x3fc46db900000000	0.1595984697341919
198	0x3fd2303fc0000000	0.2841948866844177
199	0x3fd1c4b100000000	0.277630090713501
200	0xbfddce3480000000	-0.46571075916290283
201	0xbfc86c3400000000	-0.19080209732055664
202	0xbfdb818fc0000000	-0.42978280782699585
203	0xbfd43ffdc0000000	-0.316405713558197
204	0x3fd1d2cdc0000000	0.27849143743515015
205	0xbfb31ce300000000	-0.07465952634811401
206	0x3fcb2e7880000000	0.21235567331314087
207	0xbfd2c8c180000000	-0.29350316524505615
208	0x3fb3736c00000000	0.07597994804382324
209	0xbfd35aff00000000	-0.3024289608001709
210	0x3fcffe3b00000000	0.2499459981918335
211	0xbfcbfe0480000000	-0.21868950128555298
212	0xbfc00c7000000000	-0.1253795623779297
213	0xbfdbc3a2c0000000	-0.4338156580924988
214	0x3f5b100000000000	0.001651763916015625
215	0x3fde622440000000	0.47474008798599243
216	0x3fcf106f80000000	0.2426890730857849
217	0xbfd112c480000000	-0.26677048206329346
218	0x3f7b8b0000000000	0.006724357604980469
219	0xbfac11ec00000000	-0.054824233055114746
220	0xbfd9c32b00000000	-0.40253710746765137
221	0x3fd9174640000000	0.3920455574989319
222	0x3f8081f000000000	0.008060336112976074
223	0x3fbaf4d800000000	0.10529851913452148
224	0xbfc9d85580000000	-0.2019144892692566
225	0xbfcdf26300000000	-0.23395955562591553
226	0x3fb51b1a00000000	0.08244478702545166
227	0x3fc7a95800000000	0.18485546112060547
228	0x3fbcb5cc00000000	0.11214900016784668
229	0xbfced83000000000	-0.24097251892089844
230	0x3fdf119840000000	0.4854488968849182
231	0xbfb2d79800000000	-0.07360219955444336
232	0xbfd398e780000000	-0.306207537651062
233	0xbfcdef0100000000	-0.23385632038116455
234	0x3fdf806000000000	0.49221038818359375
235	0x3ef9400000000000	2.4080276489257812e-05
236	0xbfb1601100000000	-0.06787210702896118
237	0xbfcaa26500000000	-0.20808088779449463
238	0xbfc0c6fd80000000	-0.13107270002365112
239	0xbfdaf38940000000	-0.4211142659187317
240	0xbfd96e0c00000000	-0.3973417282104492
241	0x3fd2bab100000000	0.292644739151001
242	0x3fdb5fd780000000	0.4277247190475464
243	0x3fde89a100000000	0.47715020179748535
244	0xbfd71a26c0000000	-0.3609711527824402
245	0x3fd14ec080000000	0.27043163776397705
246	0xbfd3ce9300000000	-0.30948328971862793
247	0x3fd3170580000000	0.29828011989593506
248	0x3fd716f900000000	0.3607771396636963
249	0x3fd8c38d00000000	0.3869354724884033
250	0x3fd70aa900000000	0.36002564430236816
251	0x3fd404b240000000	0.31278663873672485
252	0x3f83ee4800000000	0.009731829166412354
253	0x3fcd682900000000	0.22974121570587158
254	0xbfc6e5b800000000	-0.17888545989990234
255	0x3fcbde2a00000000	0.21771740913391113

taus f8 [1, 1, 16, 1, 1]
0	0x4004000000000000	2.5
1	0x4004000000000000	2.5
2	0x4004000000000000	2.5
3	0x4004000000000000	2.5
4	0x4004000000000000	2.5
5	0x4004000000000000	2.5
6	0x4004000000000000	2.5
7	0x4004000000000000	2.5
8	0x4004000000000000	2.5
9	0x4004000000000000	2.5
10	0x4004000000000000	2.5
11	0x4004000000000000	2.5
12	0x4004000000000000	2.5
13	0x4004000000000000	2.5
14	0x4004000000000000	2.5
15	0x4004000000000000	2.5

eps_omega f8 []
0	0xc025099ac85b3667	-10.518759022840824

l_op.eps_theta f8 []
0	0xc0227fdd2645cc83	-9.249734111805315

l_op.conv_layers.0.conv_param.parametrizations.weight.original f8 [4, 1, 5]
0	0x3fe289dc74f36190	0.5793287548249726
1	0x3fe641e2eab9935d	0.6955427727194593
2	0xbfe11e3c3cef397d	-0.5349408331037889
3	0x3fd95d5851fa6b79	0.39632232671436146
4	0xbfcfb99681d2551c	-0.2478511937994562
5	0x3feafe2a5f6dae78	0.8435260642849718
6	0xbfeedbe9b839a888	-0.9643448446415883
7	0x3fe13a3494608e9b	0.5383551500312537
8	0x3fd4f4860e10f374	0.327424539314783
9	0xbfed435d9af85794	-0.9144733454474925
10	0x3fd689145ec0115e	0.3521166730208928
11	0xbfc5c5ee8b09190a	-0.17010289944500584
12	0x3ff51fe77e8f6693	1.320289129615422
13	0xbfdd80ef93390448	-0.4609946191522494
14	0x3fb74ce23ace49c2	0.09101690231026452
15	0x3f9e6ca7330db0db	0.029711353770310516
16	0x3fe2e72b2a6c993c	0.5907188252065576
17	0x3fc370c4883dab20	0.1518788972128613
18	0xbfe26cdab3f51087	-0.5757878794470493
19	0x3fafb41f748c9b1c	0.06192110345573651

l_op.conv_layers.1.conv_param.weight f8 [8, 4, 5]
0	0xbfe2e58017223114	-0.5905151798083659
1	0x3ff2eea9c874381e	1.1832673864587444
2	0xbfdb7e8abd5dc93e	-0.42959850781257447
3	0x3ffa3b9336d496d2	1.639544691258767
4	0xbfd91bfe69977790	-0.392333605877746
5	0x3fbc122bad77460b	0.1096522615910304
6	0xbff3b9f85e179bc7	-1.2329028773763058
7	0x3fd7061111422f4f	0.3597452801266074
8	0x3fe27b07fd6e9e3f	0.5775184583516831
9	0x3fdcd27e7fe68e06	0.4503475426701872
10	0xbfe10b186c018d1c	-0.5326044187062595
11	0xbffe692ecb25720f	-1.9006793914223896
12	0x3fe341c426bf0279	0.6017781025658017
13	0xbfee17bc05d8c55d	-0.9403972734636842
14	0x3fe957cb5203255b	0.791967067890407
15	0xbfe6f605b3002795	-0.7175320144753977
16	0xbfdd0983dedc3691	-0.45370575679485464
17	0x3fe3a333a7599645	0.6136720913461394
18	0xbfde9d854a98a7ac	-0.47836429867549657
19	0x3fb65ccc07a68fae	0.08735346972258526
20	0x3fcf1eadc194f32a	0.24312374069440895
21	0x3fe101324ac931cb	0.5313960514700339
22	0xbfed6991d7ecf471	-0.91913692639322
23	0x3ff9383636267619	1.576223575138448
24	0x3fdf0a4deecc8f75	0.4850039321920499
25	0x3fc951f0504945a2	0.19781307144380117
26	0xbfc192e376e78856	-0.1372951822841652
27	0x3fcb51aafeb87d63	0.21342980802090059
28	0x3fd5b36947525050	0.33907539334291403
29	0xbfd2b2417b2780bc	-0.2921298697165289
30	0xbfc9a24ea365d9d1	-0.2002657220688904
31	0xbfe8fc73bbe41559	-0.7808169049973613
32	0x3fd5cb716da35089	0.34054218012648413
33	0xbfdde2a443f62015	-0.46695810925348386
34	0xbfbc43355de676f2	-0.11040051977621682
35	0xbfbb7e2d46c38fa2	-0.1073940561068967
36	0xbfe1a50bb5013e93	-0.5513971839190667
37	0x3fd1d187ec13eced	0.27841375402904484
38	0x3fbdcc1b92e639b9	0.11639568649682176
39	0xbfd6d823a4da7500	-0.35694209193191284
40	0x3fd139f3970f7a5d	0.269162080306989
41	0x3fe2b4aa535560b7	0.5845538737876471
42	0xbfe51dbd8545dd4e	-0.6598804095255362
43	0x3feb5c8b688573ce	0.8550469438010795
44	0x3fd99262ea1b1ac8	0.3995597158613404
45	0x3feaca11fe62e181	0.8371667831880104
46	0x3fd0ae82ec8af6eb	0.2606513319004608
47	0xbfa2da8dcbdc4cbb	-0.036823683867760214
48	0xbfb6bd21f7495516	-0.08882343566195447
49	0xbfe1d0684736385c	-0.5566903487067623
50	0x3fd3b95c8d458306	0.30818856998489286
51	0xbfcfa2d130991d6d	-0.24715628502802237
52	0x3fdf9d8ac4915e13	0.49399060436323444
53	0xbfea98be5f85b6b0	-0.8311454644842424
54	0xbfdacc9b5d47bf63	-0.41873821362877645
55	0xbfd52f8ebbccae20	-0.331027682683926
56	0xbfe5dda135976cfa	-0.6833044096669305
57	0x3fda85a184160107	0.41440618418711533
58	0x3fc21018412adda6	0.14111617261890536
59	0x3fbcd5215aaab6b8	0.11262711013361126
60	0x3fe68f5b7f68a6cc	0.7049996841862707
61	0xbfd07f30e88b7269	-0.2577631255096891
62	0xbfa9a928746fe15f	-0.050118698323731385
63	0xbfcada6ded6fe171	-0.2097909364090458
64	0x3fd1e06d158a7a25	0.279322882686673
65	0x3fc41dda6c584917	0.1571610478427565
66	0x3fe6f40350e3a5b0	0.717286737429438
67	0xbfd51fc1a512407a	-0.3300632583641413
68	0xbfd073d71c03b06f	-0.25707032905371013
69	0x3fccb1242aeee760	0.2241559228548864
70	0x3fdbdab6a54d63d3	0.43522421019366425
71	0x3fc0040dc05269e4	0.12512370959014085
72	0xbfb7a2ea94ffd802	-0.09232965600662627
73	0x3fcbc21ff04e0ccf	0.2168617175449072
74	0xbfdd056e62b4827c	-0.45345649375125396
75	0x3fcf1db5791ed280	0.24309414304811483
76	0x3fc4b1de8021d29d	0.1616781354565732
77	0xbfbeba86186063f9	-0.12003362746362702
78	0x3fbcc6cd6a44c464	0.11240848392914554
79	0xbfc6cc5f37619c1f	-0.1781119366089294
80	0xbfc7a5f2b224a2e2	-0.1847518319930464
81	0xbfe210122d384c74	-0.5644617922975059
82	0x3ff48d534fabb635	1.28450327988993
83	0xbff9185661461240	-1.5684417533640413
84	0x3fac79e55227bc7d	0.05561749103423439
85	0xbfdc1bf9cc450849	-0.4392075056858898
86	0x3fb590a7bcca1290	0.08423851355662237
87	0x3fd720112cafd90c	0.3613322197337687
88	0xbfe355fbe8e1e7c9	-0.6042460964665618
89	0x3f93ca267d701dbf	0.019325829893231502
90	0xbfc4907c000aa071	-0.1606593132212342
91	0x3fe2e7b8a39e7235	0.590786284988616
92	0xbfc19401bc919fcd	-0.13732930858100048
93	0x3fe80a3587f24a0b	0.7512462287143661
94	0xbfd58ce882d96151	-0.3367253568481106
95	0xbf7e0b718f9ea07e	-0.007335132215224969
96	0x3fe0ccf8d65a6e08	0.5250209986292598
97	0xbfda18bd0bc0c269	-0.4077599158072532
98	0x3fc631a62e7fff5f	0.17339017172343582
99	0xbfbb194ae499717d	-0.10585468369521851
100	0x3fb1d46582af7ec6	0.06964716377796795
101	0xbfbe0ba601e832e9	-0.1173652414947345
102	0x3fd25fd0587f50f0	0.2870980133277632
103	0xbfc6de63ed7071a9	-0.17866181462967504
104	0xbfc366c8054230ad	-0.15157413727536576
105	0xbfece85586d311a0	-0.9033610947886253
106	0xbfd49fbf2710ec55	-0.32225016417550495
107	0x3f957ec05ec3dcfe	0.020991330894472242
108	0x3fe22738ec1a0f0c	0.5672878848422171
109	0x3fe1f978d3698a3c	0.5617031220575153
110	0xbfca7d0d8c083fe8	-0.20694131219397538
111	0xbfaa1e44da72df93	-0.05101218382463837
112	0xbfc52719ec86308e	-0.16525577591926716
113	0x3fd671a2b6d274e1	0.35068576673240953
114	0xbfc2a67b902159ac	-0.14570564782725393
115	0xbfa48c974a064537	-0.04013512400264079
116	0xbfd05be7861c5345	-0.2556093988107942
117	0xbfd262ab44337e35	-0.28727227840679187
118	0xbfc1ea9ed9686211	-0.13997254958737007
119	0xbfdadf6d955e1f03	-0.4198869665783464
120	0x3ff164fc3019b69e	1.0871545676158472
121	0xbfe50823b58c878c	-0.6572435899617957
122	0x3ff5416e08330917	1.3284740753447914
123	0xbff5fc36159383b7	-1.3740750162908009
124	0x3fe47d2d8c10dd2d	0.6402805076276415
125	0x3fbc9211d4a167d0	0.1116038459889801
126	0xbf96004d7322ee72	-0.021485529091235418
127	0x3fef7cdf4597917a	0.9839931830615989
128	0xbfdd7d85e34d75bb	-0.46078631589429236
129	0x3fe4799f01be2ef7	0.6398463281670662
130	0x3fe1dbf335f7ce11	0.5580993703901546
131	0x3f8ae97b308a6169	0.013140642565574638
132	0xbfbb7dcea2ba4ee7	-0.10738841507764683
133	0x3fe6aab266d168d7	0.7083370216526202
134	0xbfe9293c69c4c949	-0.7862836900515414
135	0x3fb1bb054ca489f3	0.06925995942268752
136	0xbfc7160b7d974f06	-0.18036025650382487
137	0xbfe25aed2c771ba5	-0.5735994213545054
138	0x3fe75e24efa79f4f	0.7302422219044987
139	0xbfe82a8e25785844	-0.7551947337949589
140	0xbfe09819033a8d7f	-0.5185666144429176
141	0x3fe8cc14d7b51d0f	0.7749122822796454
142	0xbfb797ba2999b838	-0.09215892329822928
143	0xbfe1df9205b792df	-0.558541308561498
144	0x3fdf71356bbc645d	0.49128470917782413
145	0x3ff9888be6d2f978	1.595836545616832
146	0xbff4442dc8f240ec	-1.2666452264275518
147	0x3ff41ee7d53fbdf0	1.2575453119314908
148	0xbfec9bcc83d38390	-0.8940184187632543
149	0xbfc99a62b2f8a7d3	-0.20002397288163695
150	0x3fe067df14226056	0.5126796143768029
151	0xbfea892cc0f84838	-0.8292449730818197
152	0x3fec4afde248dc44	0.8841542644139584
153	0xbfd38c4ed9a7c5fb	-0.30543872123152455
154	0xbfdb29f77aa93c0f	-0.4244364450323141
155	0xbfdc9bf0c616bff4	-0.4470178541623675
156	0xbfc670d964d30676	-0.17531888411581392
157	0xbfa74fdb704ac2d0	-0.04553113694908506
158	0x3feca5b3998b274c	0.8952272414110012
159	0xbfc98dec7a93857c	-0.19964366898697594

l_op.conv_layers.2.conv_param.weight f8 [16, 8, 5]
0	0xbf9230ef2f8aca7d	-0.017764794613592805
1	0xbf91ef6f3871c112	-0.01751493246087061
2	0x3fa802d50017bc81	0.04689660669452512
3	0xbfbc774eaa29ebe1	-0.1111954846800667
4	0xbfd2640da47dc235	-0.28735676826093776
5	0x3fabe6abd846077e	0.054494257116870934
6	0x3fc3a6e31c394a4b	0.15353049162020435
7	0x3fbbe73c5a6b73f5	0.10899712760460985
8	0xbfc42bc9e642afb6	-0.1575863241499726
9	0xbfbe1235662ec136	-0.11746534104054693
10	0x3fa2bb8f8417110c	0.03658722388675714
11	0x3fad3150c6cc98f7	0.05701687266109617
12	0x3fbb6e7cb72bf5d4	0.10715465042081657
13	0x3fb4b04534e9ea34	0.0808146719154273
14	0x3f92a7afdae160aa	0.01821779988708331
15	0xbfacccde054f0e2f	-0.05625051321797191
16	0xbfc54d1e65301957	-0.16641597691359308
17	0x3faab6429bf35ef8	0.052171784913012276
18	0xbf9a2f67ca19716a	-0.02557146235481992
19	0xbfcfe2d6037d803e	-0.24910998506948262
20	0xbfcf2e60ba0134e4	-0.24360283930074111
21	0xbfc11c960593c9a8	-0.13368487617806335
22	0x3f9968f3d1fea55d	0.02481442422109602
23	0xbf835b87ddd49082	-0.009451924760078837
24	0x3fb0c02b00e7911a	0.06543225071033412
25	0xbfc91a279e117c02	-0.19611067979982982
26	0xbfc751129444d8e2	-0.18216163863843976
27	0xbfc76ff62245ec1d	-0.18310429261677622
28	0xbfb50106a63fa709	-0.0820469051247096
29	0x3fbf0f096ba37283	0.12132319333927381
30	0x3fa788ab3584e4b1	0.04596457508382324
31	0x3fc22fec6a56f4e7	0.14208750908247866
32	0xbf9079058f7e4d55	-0.016086661227359873
33	0xbfc794e8c040e0e4	-0.1842318476426562
34	0xbfbe7d0ac38fe0b7	-0.11909549021209186
35	0xbfcd3a24cc40783f	-0.22833690617784616
36	0x3fd9509c13dde1fe	0.3955450243006736
37	0xbfe7c9c828686709	-0.7433815755095746
38	0x3fc1129b1b8bb629	0.13338030667311898
39	0x3fbaaf184133ddfc	0.10423423377857682
40	0x3fd1aa70fcf8c804	0.2760279150417093
41	0x3f783aa92e1cd3e8	0.0059153183554387714
42	0xbfd2b3fd0dc84e77	-0.292235625705167
43	0x3f9b3f501410446e	0.026608706688481858
44	0xbfe0af8ca95f3b9c	-0.5214293773695888
45	0x3fdb6ea8742c1021	0.428629029702508
46	0x3fd2f359a13c1136	0.29610291238374786
47	0x3fb716f16280f882	0.09019383101346715
48	0xbfdc14b4ca69d03e	-0.43876380698134543
49	0xbfbcb24ae5318462	-0.11209552856009133
50	0xbfb7ea74d6b14985	-0.09342127076641844
51	0x3fd976cf3f14fe0e	0.39787655983306613
52	0x3fce0bbf40f0618c	0.23473349257325216
53	0xbfb0052041acb118	-0.0625782165849994
54	0x3fc86917155f4464	0.19070709746896164
55	0x3fd64cdda66e0c26	0.34844151738087914
56	0xbfa8ec3482f9c269	-0.04867710207770843
57	0xbf820866cdec3448	-0.008805087241421941
58	0xbfd1330b9226ec33	-0.2687405516878158
59	0xbfc5edb00ddd248e	-0.17131615330643907
60	0xbfc81daad742ae9e	-0.18840537558331943
61	0xbfa928e900f3101f	-0.049140244832898576
62	0xbfac22944e6a2be1	-0.054951319286452145
63	0x3f9cbc6f7cdb5bea	0.02806257438245644
64	0x3fb05410f88de43d	0.06378274982661565
65	0xbfd64f94046ce2e4	-0.34860706741487335
66	0xbfe0915080533ae3	-0.5177385813093135
67	0x3fbbc813289eafdf	0.10852164975830146
68	0xbfc967a280103c03	-0.19847518208595724
69	0x3fb3d84f13fbe716	0.07751936185732364
70	0xbfc29a50e88afb9f	-0.14533435206064113
71	0x3fe0ab0549e85b3e	0.5208765452870023
72	0xbfc5b8afe76249d2	-0.16969870374721424
73	0xbfc51e00769b915e	-0.16497808257475816
74	0x3fbb5cff51316b05	0.10688777668239531
75	0xbfeaa07ed043cbe2	-0.8320917194054085
76	0x3ffdff1690e5e654	1.8747773799972451
77	0xbff6383d25b148ea	-1.3887301895488755
78	0x3fe8a86e6c1309d9	0.7705604658916015
79	0xbfc78e934ca32783	-0.18403855554634782
80	0xbfd484a0d9402534	-0.3205949899280143
81	0xbfcb0da63019f15c	-0.21135403965662192
82	0x3fee7bb0d4437e3f	0.9525989671491927
83	0xbff174e999437bc0	-1.091043089567151
84	0x3fccdf3bc5827f4b	0.2255625452426052
85	0xbfc931bdfa06ec6d	-0.19683050831176577
86	0xbfddaae9e6e9a700	-0.4635567431456451
87	0x3fe390573c1f4380	0.6113697218189458
88	0xbfb45fc42e8b9ce2	-0.07958627830850021
89	0x3fe067db580a0d90	0.5126778335110647
90	0x3fc5232967e0cfaf	0.16513555118728848
91	0xbfdbeb0f0dbde4ca	-0.4362218507954593
92	0xbf9bc68384df7f28	-0.02712445734493865
93	0xbfe1b8b1dde18d5b	-0.553795750962688
94	0x3fd502855fb86853	0.32827886913003573
95	0xbfdcb008d3e45dbb	-0.4482442921884872
96	0x3fc0066daf364619	0.12519618087075982
97	0xbfc4047826565be8	-0.15638639327946113
98	0x3fd5cda3eb51f8fb	0.3406762884186631
99	0xbfde800cafd2c64e	-0.4765655247711934
100	0x3fd1d04cd58c96df	0.27833863119518115
101	0xbfce133d8d908d40	-0.23496217167221722
102	0xbfd593dbe481192b	-0.3371495944487772
103	0xbfc23ce0c5d41fe2	-0.14248284968948527
104	0xbfee2fafa81cffcf	-0.943321064325568
105	0x3fcc31823c94baff	0.22026088674598296
106	0x3fbc1310f649e8df	0.10966592801006268
107	0x3f62d20452bcfc28	0.002297409480803054
108	0x3fda248707d6100e	0.40847945943119235
109	0xbfc4dfef6cad8ea9	-0.1630839615491955
110	0x3fb8289ca8a467a1	0.09436968915215839
111	0xbfda32387cc9677f	-0.40931522546963345
112	0xbfeba0155cf9d161	-0.8632914367613403
113	0x3ff199f8795e7727	1.100090478990248
114	0xbfebbdddac106246	-0.866926990568637
115	0x3fe2310e49f8aa6d	0.568488258815092
116	0xbffb2187fd5251cf	-1.6956863303540677
117	0x3fe83b9515cbf23d	0.7572732377735246
118	0xbfd7e4d0a59e6e6f	-0.37334076093404794
119	0xbfd85d1bb9e25d40	-0.3806828799510704
120	0xbfd7e7082e541f21	-0.37347607158925383
121	0x3fd339de799e935c	0.30040704609773683
122	0x3f9d4f677e0557fe	0.028623215738967638
123	0xbfdf095a46e58245	-0.48494584010589775
124	0xbfce51bb82ab7584	-0.23686927681312053
125	0xbf8d2b575a4a8461	-0.014242823069539225
126	0x3fc0d2a046ebaae1	0.13142779791754491
127	0x3fdaf1c89fc374d2	0.42100730516342566
128	0xbfbd546e7711cd82	-0.11456957251521341
129	0xbfcd05610b2565cd	-0.22672665638201153
130	0x3fc0742fc55af2f1	0.12854573379981774
131	0x3fd23a83966be188	0.2848214119872172
132	0x3f96241ecc267def	0.021622163019513193
133	0xbfa09239cc48f3ce	-0.032365614115839145
134	0x3f8ea62291790a7c	0.01496531492660335
135	0x3fd03c90147df794	0.25369646073510776
136	0xbfc4bd383670b7e2	-0.16202452333658274
137	0x3fcecde04f250eeb	0.24065784325113468
138	0xbf74cc1c4db52960	-0.00507746749947055
139	0xbfca49505e137bef	-0.20536236375389147
140	0xbfbe067faa44770a	-0.11728666216773945
141	0xbfa8883fe08ab324	-0.047914501342665866
142	0xbfcfa601f4484828	-0.2472536509308736
143	0xbfa0b24282cd6e3d	-0.032610014407250955
144	0x3fa89ce497b35dbb	0.048071998136659265
145	0xbfcacf101a285678	-0.20944405820107526
146	0xbfb0c14567411d15	-0.06544908305032877
147	0xbfc32e052e15723f	-0.14984192609962751
148	0xbfc2069ae247d091	-0.14082656906942195
149	0xbfaa16e75089a95e	-0.05095599039198605
150	0x3fc19ae76487e87b	0.1375397911904804
151	0xbfb6885345ddfd64	-0.08801765876522932
152	0xbfdc4329f01c31aa	-0.44159935425048025
153	0x3f9d35347601744d	0.028523273184294862
154	0xbfc0e9e3610cdd70	-0.13213770140439918
155	0x3fc5859bef9099ef	0.16813992688658128
156	0xbfb5c6f363fd215d	-0.08506699744350983
157	0xbfdddff4b3ac32fd	-0.4667941813102486
158	0xbfd565b842461db4	-0.33433348152217524
159	0x3fcff2301c51bb40	0.24957848913933312
160	0xbfb6a7ee4d8a3cfe	-0.08849992173258056
161	0x3fb951c279bb3e35	0.09890380355795332
162	0x3fc77d2f551111ca	0.18350783971449253
163	0xbfe293b98d8b5684	-0.5805328144585507
164	0xbfd7ceb52ebf082c	-0.3719914394861259
165	0xbfc4d490d75b62c4	-0.1627369929836019
166	0x3fcd4df06d027889	0.22894101450669194
167	0x3fc3f0a6f9af6de7	0.15578162376083002
168	0xbfc417c5386e3e27	-0.15697541480447905
169	0x3fb055c8ab484f18	0.06380895787907226
170	0x3fd4176afa11834c	0.3139293138574899
171	0x3fd1fcf0163587e2	0.2810631005178249
172	0x3fca20bc3c11d50a	0.20412400181854934
173	0xbfb80dbc28cc63ef	-0.09395957943014797
174	0xbfb03ce9072a4d1b	-0.06342941689426988
175	0x3fd095f7579b1b18	0.2591532092596238
176	0xbfa7f0dd44c4fc5b	-0.04675952400656832
177	0x3fc4cb29263dede0	0.16244997374802406
178	0x3fa38ab6e80064cd	0.03816768247652078
179	0xbfd4cd7a9c77f4aa	-0.3250414398206184
180	0xbf8f74aac76bc5db	-0.015359243594022345
181	0xbf8954424ca9f8a7	-0.012367742504690261
182	0xbfdd4c8f63798b1c	-0.4577978583749187
183	0xbfc35ec7ae21daea	-0.15132995607901673
184	0x3fc2065f983d49a7	0.14081950124325468
185	0xbfbf946d18eac9c5	-0.12335855348900455
186	0xbfb247c4dba96c4e	-0.07140760767781382
187	0xbfce8a180e3c30eb	-0.2385892934329442
188	0xbfc38eb792238997	-0.152792879444928
189	0x3fb24d53a665de77	0.07149241268586502
190	0xbfab1f5717fb9e92	-0.052973481824492144
191	0xbfa8628c3fa8429b	-0.04762686039987792
192	0xbfe08b17e6d63782	-0.5169791706591556
193	0x3fc9cc35f14e0e7b	0.2015445163962005
194	0xbfd09a0607b654c1	-0.2594008517565492
195	0xbfca165098dcdf7d	-0.20380599464419538
196	0x3fb77d5a8dbf3473	0.09175649605386287
197	0xbfe17dbaa53f9e6b	-0.5465977885732632
198	0xbfc13ffa682350da	-0.1347649582372757
199	0x3fb2d906c913b287	0.07362406167130518
200	0x3fdcb6cad742dcbd	0.44865675946807554
201	0xbfec3ac9fa6de6b5	-0.8821763888547226
202	0x3ff0011054a761a8	1.0002597147741685
203	0xbfd958de0628d5dd	-0.3960490284110543
204	0x3fd374354294d1dc	0.30396777631838545
205	0xbfa77d9c26f35f6b	-0.04588020301315406
206	0xbfe4cb71cbcf9b8c	-0.6498345356638864
207	0x3fded1f1c7a2e70a	0.48156399245964165
208	0x3fbf1716bad7fd12	0.12144605695356273
209	0x3fbcc16aa8d84d84	0.11232630369368307
210	0x3fa2e4c70e8e2869	0.036901684309740564
211	0xbfe046ad9da9d87b	-0.5086277083744472
212	0x3fd18fa5422c2733	0.2743924280372198
213	0xbfd1bdea337d54b8	-0.27721648243216235
214	0x3fb9d214e9dc84fd	0.10086184224612178
215	0xbfe04b993117a3ef	-0.5092283209643237
216	0x3fd4d9711c73a622	0.325771596703449
217	0xbfd92a0419809826	-0.3931894539877042
218	0x3fe0479c47584d6c	0.50874151167447
219	0xbfb89cde704a1c6d	-0.09614362946932582
220	0x3fde81e9a7c8b885	0.47667924294626857
221	0x3fa85a4b50b3a106	0.047563890076903134
222	0xbfde7b792ec76fdd	-0.4762862164332072
223	0x3fbc90f3468f24f4	0.1115867659820145
224	0xbfd9438215867769	-0.39474536993099335
225	0x3fd05dd6e80f047c	0.25572750722864845
226	0x3fd1905f8e66b319	0.2744368448864392
227	0xbfc276dae5b26549	-0.14425216880480665
228	0x3fbcec37b896b332	0.11297939545211191
229	0x3f8323cd1532feed	0.009345628938148798
230	0x3fc72691b5482f91	0.18086453773173308
231	0xbfdec0a2e61d710a	-0.4805075881211144
232	0xbfe7d694a665b422	-0.7449439287135002
233	0x3ff01d7b4628209f	1.0071976414201698
234	0xbfe4db3b5761bf47	-0.6517616945911663
235	0x3fd8c5c445cd3198	0.387070720830502
236	0xbff948be54035005	-1.5802596360927066
237	0x3ff047cf2421cbf8	1.0175315295607543
238	0xbfefca3484a6be95	-0.9934332457396119
239	0x3fcefcfc05bc154f	0.24209547309889465
240	0x3fd450ba0e98127c	0.3174271719474644
241	0xbfd232abab320bfb	-0.2843426868277558
242	0xbfa38d72c3a05e71	-0.03818853986757354
243	0x3fe0d8f54368cab6	0.5264841381634457
244	0x3fc0882ae86908f7	0.12915550563963737
245	0xbfaf5ad780648efe	-0.06123994295401579
246	0xbfc0006f011d151f	-0.1250132327497022
247	0xbfdea53fcfb99b00	-0.4788360146107351
248	0x3fcc5e962bc47a84	0.22163655411801042
249	0x3fd2943b90268ded	0.2902974040718778
250	0xbfbbbf106a8e575e	-0.10838415719476077
251	0xbfbe0b83ba364bf4	-0.11736319824403535
252	0xbfc0bb44f9d6ee54	-0.13071500968168215
253	0x3fc31bc202270332	0.14928460221383372
254	0xbfb2fd45c682a993	-0.0741771325726062
255	0xbfd126d8ec72ae8d	-0.26799605455992365

mu.0.weight f8 [16, 1]
0	0xbfd491d980000000	-0.3214019536972046
1	0x3fc1f9120234b759	0.1404135237475497
2	0xbfc5fd3229716b99	-0.17178942702852565
3	0xbfc5fd0b972c950b	-0.171784828963759
4	0xbfd70a7327f34bfb	-0.3600128069057857
5	0x3fcdbd667bd8a71e	0.23234253928358667
6	0xbfaafb393a14664d	-0.052697933521085184
7	0xbfcb89969112883e	-0.21513635715115415
8	0x3fb0ab7a00000000	0.0651165246963501
9	0x3fe226cbfcfdaaa1	0.5672359410503597
10	0x3fe11f01e445153b	0.5350350817103967
11	0x3fe5b403bf935172	0.6782244435985787
12	0xbfddff07edf275a0	-0.4686908553793163
13	0xbfe0b07be2eaf8a9	-0.5215434486379041
14	0x3fd5e5637e6cc949	0.3421257719629876
15	0x3fcf27d11be4059f	0.2434026132760154

mu.0.bias f8 [16]
0	0xbfeb78ee40000000	-0.8585120439529419
1	0x3fa79f989ded7577	0.04613949706866099
2	0x3fbb7631bafa2970	0.1072722512709896
3	0xbfd602b73f4f110a	-0.34391575987344025
4	0xbfe8bd59c3d7e879	-0.7731140923563223
5	0x3fdb5a704c36d291	0.42739493792331823
6	0xbfbb14fe1fe3469c	-0.10578907278547905
7	0xbfd153e2dc9acb0d	-0.27074500602172763
8	0xbfe5a42180000000	-0.6762855052947998
9	0x3ff152b8f9a834d0	1.0826959373692269
10	0xbfe482246c64e9e0	-0.6408865086626143
11	0x3ff4e3c0cdacae46	1.305603793541097
12	0xbfe596d0135324d2	-0.6746597649991151
13	0xbfc4e2e7bc1369ac	-0.1631745975817699
14	0x3fbd8f0b62c2dbcf	0.115463935481656
15	0x3fde6fd67faea249	0.47557604283295923

mu.2.weight f8 [16, 16]
0	0xbfa3a12300000000	-0.03833875060081482
1	0x3fbdd5d6c7e41d07	0.11654417400506044
2	0xbfc28526020d526c	-0.144688368799183
3	0xbfb84df14a9e8091	-0.09493930885082792
4	0xbfc9659f8d60a27a	-0.19841379550168253
5	0x3fca6cc8f3d076d3	0.20644485383029706
6	0xbfc13efc7edb1ac8	-0.13473468965658797
7	0xbf944033f0b86f68	-0.01977616459599521
8	0xbfb7a99900000000	-0.09243160486221313
9	0x3fe4c93cc96c71bd	0.6495651182227032
10	0xbfa3e3d90596b46b	-0.03884771531316108
11	0x3fe6ec462d8d2ce1	0.7163420571972915
12	0xbfd7b83cc29d0c7d	-0.3706199551126657
13	0xbfd1c80e5b72b1c2	-0.2778354542777174
14	0x3fba24cb56de6e9a	0.10212393637487552
15	0x3fbfb8db7dc51179	0.1239144498877688
16	0x3fca4f6940000000	0.20554843544960022
17	0xbfdd7927ffdaf51b	-0.460519790514654
18	0xbfa4345e5040736b	-0.03946203927646404
19	0x3fa0efaa06a2aafb	0.03307849246023938
20	0x3fa5dc45050f9db5	0.042696148746297714
21	0xbfa9bfb2fc760b8c	-0.05029067355919556
22	0xbfd5e8a3a56b0932	-0.34232417253601277
23	0x3fb722ade6dd8df6	0.09037291418422186
24	0xbfa5e4e300000000	-0.04276189208030701
25	0xbfc4b631963016a7	-0.16181011041060353
26	0x3fcd0b36fc229160	0.22690474807053373
27	0xbfbf30e31281e283	-0.12183970643844515
28	0xbfc714b107c758c2	-0.18031895522898905
29	0x3fb6918389d50630	0.08815786471407061
30	0xbfa986ca515d866d	-0.049856493408481174
31	0xbfc599f5ee7bfd34	-0.16876100678198613
32	0x3fa4d0a500000000	0.04065433144569397
33	0x3fc7ee6025612ec8	0.18696214509178888
34	0x3f7ac442752a2c59	0.006534823990146676
35	0xbfaf45d555ff0e30	-0.06107966112861296
36	0xbf8e66fb939e9f07	-0.014844861452572923
37	0x3fad0c99b4890bfa	0.05673675850677991
38	0xbfc2d4c5ce78bc97	-0.14711830693838543
39	0xbfc6eb0de83ffb44	-0.1790482887299395
40	0x3fc0f78c80000000	0.13255459070205688
41	0x3fe1c820eaa93ebf	0.5556797583794476
42	0xbfae6f5aec0eff7c	-0.05944332248281989
43	0x3fe905c1322c72e4	0.7819524745896982
44	0xbfcca9955b7bbaa1	-0.223925275487507
45	0xbfa83e19b5103cc6	-0.047348788597554356
46	0x3fbd541ca445a934	0.11456469545888553
47	0x3fb2cbcaf9d11e24	0.07342213248295387
48	0x3fced55240000000	0.24088504910469055
49	0x3fc1312584a9594d	0.13431233384717203
50	0xbfcc20a4fa3fb9f5	-0.2197462293547258
51	0x3fca0d844d68b4ae	0.20353750018822353
52	0xbf8128895626f03c	-0.008378098432210483
53	0x3fb78c3df79a1cbe	0.09198367400141458
54	0x3fc5b3bb30b00716	0.16954746129345527
55	0x3fc8267a9f4bb080	0.1886742856798982
56	0xbfc8f1f300000000	-0.19488370418548584
57	0x3fbed629df1de341	0.12045537659822704
58	0xbfd4f654a7550807	-0.32753483143835677
59	0xbfa939a0afb8b6d2	-0.04926778931654287
60	0xbfca05c736958ed7	-0.20330133595699948
61	0xbfb44b43c155313d	-0.07927344770468366
62	0xbfc19c554ae89b64	-0.13758340985915674
63	0xbfc5de2715b62675	-0.17084206161625884
64	0xbfa4388e00000000	-0.03949397802352905
65	0x3fae1ee0e631b8f1	0.058829334354287506
66	0x3fc344a6bdaf7bac	0.15053257238375062
67	0xbf93691b58f3a872	-0.018955638221918432
68	0x3fbd4732671b2163	0.11436762826190754
69	0x3fa0a26ad8c7128c	0.03248914619647278
70	0x3fc56225c77ff0f1	0.1670577262992832
71	0xbfb3137eebc5cca1	-0.0745162320725279
72	0x3f945aea00000000	0.01987805962562561
73	0x3f9c7a74cf73abaa	0.027810883676390986
74	0xbfd1f9e6da86483f	-0.28087779369628046
75	0xbfcf2046827b43fb	-0.24317246791045463
76	0xbfb4e16c5890f66f	-0.08156468546163763
77	0xbfc96b1d22dea1dc	-0.19858135416622147
78	0xbfb2888d720564eb	-0.07239612611501271
79	0xbfe824b984f425b2	-0.7544829937698323
80	0x3fa3ecc200000000	0.03891569375991821
81	0xbfbc29143da9edd7	-0.11000181680167685
82	0xbf9a8a85e0206788	-0.025919048122978988
83	0xbf374c0807a7d733	-0.0003554839710483315
84	0x3fc9441700000000	0.19739043712615967
85	0xbfdcbe93c00374fc	-0.44913190604513864
86	0xbfcd38c75d52bd03	-0.22829525048062047
87	0xbfcb48ff299f9be7	-0.2131651833762753
88	0xbfc18961c0000000	-0.1370050609111786
89	0xbfd11dd4cb67dbdc	-0.2674457537063384
90	0xbfcee20076021261	-0.24127202760805047
91	0xbfceb8aea235fcb5	-0.2400110523267124
92	0xbfc9ad374505ff71	-0.20059862966808908
93	0xbf791d9493946cbf	-0.006131725670708465
94	0xbfd61d4b56e1b820	-0.34553798183958584
95	0x3fd1aa4641d5a6e2	0.2760177271762655
96	0xbfb7b86200000000	-0.09265720844268799
97	0xbfc98101ce1ef502	-0.1992494827699503
98	0xbfd519f88c379ac4	-0.3297101373013158
99	0xbfc6e22400c52d07	-0.17877626454933468
100	0x3fb42b0bd4b27a05	0.07878183310320004
101	0x3fb095084d273d0c	0.06477405437111744
102	0x3fbb21d1d0c79aa3	0.10598479602013326
103	0xbfd7843b9224b4aa	-0.3674458434277975
104	0x3fc4925640000000	0.16071584820747375
105	0x3fd901582b183ba4	0.3907070561262407
106	0x3fb14ccd1554deb3	0.06757814188756121
107	0x3fdaf55ad6e2dc9a	0.42122527108171826
108	0xbfb791ad33c71181	-0.0920665980730231
109	0xbfcdfe3f9b20b30a	-0.23432154726597104
110	0x3fd4f28a1433cf2b	0.32730342839134846
111	0xbfd0989c47773b01	-0.2593146036060006
112	0xbfcbe8ee00000000	-0.21804594993591309
113	0x3f97fd5320920232	0.02342729460042587
114	0xbfb7c8f950749d07	-0.09291036810155982
115	0xbfd664ea28c46afa	-0.3499093435399768
116	0x3fa0a261ff354ac7	0.03248888244947561
117	0xbfd3d9be643f4182	-0.31016502179866035
118	0x3fb9a79d4d8265db	0.10021384374922297
119	0x3fb2bdad7a07873e	0.07320675114854411
120	0x3fb16cae80000000	0.0680646002292633
121	0xbfe40aeeb3264057	-0.6263345240604491
122	0x3fa9df5ab25fe76b	0.05053218295502301
123	0xbfd30b887f9ca238	-0.29757893049330475
124	0xbfb64caf7eb5fd6c	-0.08710762828376567
125	0xbfb465a18fc3b2c4	-0.07967576751588995
126	0xbfa62779e0e519f7	-0.04326992864894302
127	0xbfd56fcabea7dee1	-0.33494824045872745
128	0xbfaccb0000000000	-0.05623626708984375
129	0x3fa4bd1c70469431	0.040505303102044705
130	0xbf3c487ccef904da	-0.0004315666874142428
131	0x3fc6431fe9408dfb	0.17392348183885517
132	0xbfc45935821bb8d7	-0.15897244313186462
133	0xbfa2d44a0bc93d0b	-0.03677588838456288
134	0x3f937fa2783d552c	0.01904157503971253
135	0xbfb814e92e53ef93	-0.09406907445003147
136	0x3fc5d09f80000000	0.17042917013168335
137	0x3f9c006e00000000	0.027345389127731323
138	0xbfcd934ac0000000	-0.23105749487876892
139	0xbfac08ae585741f1	-0.054753731044573935
140	0xbfc20e3f43c49ff9	-0.14105978783595655
141	0xbf6bae576270b163	-0.0033790308694020984
142	0xbf9dc05400000000	-0.029053986072540283
143	0xbfcfbdecc0000000	-0.24798354506492615
144	0xbfa7532900000000	-0.045556336641311646
145	0xbfaa7d91dcc8a403	-0.05173927135576408
146	0xbfb9fcd3c1ad0911	-0.10151408651748663
147	0x3fc9d7e17c91fb02	0.20190065939456053
148	0xbfb51482e8fabdec	-0.08234422862982854
149	0x3fc0ffe9a4cd10e9	0.13280983492780443
150	0x3fa17a238e533463	0.034134970782908856
151	0xbfce91e86065f451	-0.23882775027223827
152	0x3fae140600000000	0.058746516704559326
153	0x3fca850080000000	0.20718389749526978
154	0xbfc4ee6480000000	-0.16352516412734985
155	0xbfc4af1a80000000	-0.1615937352180481
156	0x3fcbc3f67bc4d545	0.21691781085398013
157	0x3fc627959f531b97	0.1730830219223349
158	0xbfc1da4480000000	-0.13947349786758423
159	0x3fc3417ec0000000	0.15043625235557556
160	0xbfa0601400000000	-0.031983017921447754
161	0xbfd9b9ddd955bd81	-0.40196939682115135
162	0xbfc51389b9021ec9	-0.16465875180823833
163	0xbfb88770d0e45445	-0.0958166608800904
164	0xbfb3328f00000000	-0.07499021291732788
165	0xbfbeb88903311329	-0.12000328376695947
166	0xbfd92764485e49bc	-0.39302928034990336
167	0xbf7a858a336eb76e	-0.006475009772584401
168	0x3fcb47f600000000	0.2131335735321045
169	0xbfbbb99460e7678c	-0.1083004700261922
170	0xbf907e245054ccf3	-0.016106192973166022
171	0xbfc526e1a1f91835	-0.16524906548346655
172	0xbfd6a0a31c32efb9	-0.35355451349073125
173	0xbfcefb7028d08803	-0.2420482825555724
174	0xbfc6fdf8a36670a4	-0.1796255872585607
175	0xbfd18e51a8fcc8d1	-0.2743114614742242
176	0xbfc7a2c680000000	-0.18465501070022583
177	0x3fbc4380e5cc22ea	0.1104050217655971
178	0xbf5e79dc968d724d	-0.001860108774244601
179	0xbfd6e3d3d176c434	-0.35765548186742824
180	0x3fb02570ba565db5	0.06307129430057652
181	0xbfbb33c0419caa5d	-0.10625840761046264
182	0x3fb8570853961ce1	0.09507801094706593
183	0xbfa6a2107663494b	-0.04420520253337886
184	0x3fcd6b34c0000000	0.2298341691493988
185	0x3fb88321a47216da	0.09575090660845423
186	0xbfba5ced8cc43b43	-0.10298046766932338
187	0x3fdd2be1ca933cc3	0.4558033445618543
188	0xbfdd21b3b853efdb	-0.4551820087506237
189	0xbfd71ad1345c7c54	-0.36101179231076697
190	0x3fb16e7ea97db10d	0.06809226644481133
191	0x3fb8a774849c4f04	0.0963051627880383
192	0xbfbfcbc900000000	-0.12420326471328735
193	0x3fb828e886d40a34	0.09437421123224327
194	0x3fbdb8e3e8cf90be	0.11610245164735297
195	0x3fbe1d878c3a3853	0.11763808415909809
196	0xbfb89d49bbd74da4	-0.09615002475702866
197	0x3fcb48aa364ba56c	0.21315505648753275
198	0x3fb9e89d0b804fe0	0.10120564966956591
199	0x3fb308a495e8c85b	0.07435063037772364
200	0x3f63d70000000000	0.002421855926513672
201	0xbfc1dab7ec9c15a9	-0.13948725751121785
202	0x3fd5d9a7133126d6	0.34140946268290173
203	0x3f9231274a35942d	0.017765630630851504
204	0x3fcd84336e68a1fe	0.23059695139933462
205	0x3fc4884f6b08e398	0.16040985800080132
206	0x3fd5b00409418dea	0.3388681497947049
207	0xbfd251f4712aad23	-0.28625212718425724
208	0xbfb2957380000000	-0.07259294390678406
209	0xbf8a8a105f3250f1	-0.012958648591201856
210	0xbfcc3638dd263c26	-0.22040472791965832
211	0xbf672070010d8764	-0.002823084600479685
212	0xbfc5b61240000000	-0.1696188747882843
213	0xbf71b4526644d7a2	-0.004322358963966185
214	0xbf78e2c040640b0f	-0.006075621588254489
215	0x3f72c00519689cee	0.004577655714945934
216	0xbfcafc4700000000	-0.2108238935470581
217	0xbfd11e49541e52d2	-0.267473537585187
218	0x3fbd729000000000	0.11502933502197266
219	0x3fc7997bfbffba96	0.18437146954189093
220	0xbfcc655ac0000000	-0.22184309363365173
221	0x3fb004a7d33eb150	0.06257103831621191
222	0xbfcb663a95421451	-0.2140572766112734
223	0xbf8d655e452be3ae	-0.014353500829644119
224	0x3fcdc57d80000000	0.23258942365646362
225	0x3fc292e973d67536	0.14510839611185994
226	0xbfce243e77409bb8	-0.2354810793196671
227	0x3fc0690b9ce17e9f	0.1282057300586432
228	0x3fc0b6d280000000	0.13057929277420044
229	0xbfaf63cf03a2a83d	-0.06130835456254189
230	0x3fc93d522f7336f6	0.19718386952302297
231	0xbfc2c570fa8ce319	-0.14665043100264866
232	0xbfadc9a200000000	-0.05817896127700806
233	0xbfc4cf19d34a1bfa	-0.1625702172934494
234	0x3fa16d3cdba79c90	0.03403654271442591
235	0x3f99deacac277dab	0.025263498313390958
236	0x3f9465ec00000000	0.019920051097869873
237	0xbfc7814aa0d9c857	-0.18363316396750193
238	0xbfc27c03c324cd08	-0.14440962818626013
239	0x3fab6ef92280b522	0.053581033193362396
240	0xbfcc0ef640000000	-0.21920660138130188
241	0x3fd2efaf90bff34b	0.29587926040385487
242	0xbfd5b055673870d9	-0.3388875492107793
243	0xbfd1f90e86f5d28d	-0.28082621745787933
244	0x3f8170006bc720ca	0.0085144074336231
245	0xbf624a1526370774	-0.002232590968305576
246	0x3fb24e325fef1e61	0.07150568811550208
247	0xbfc4dc180bb871e3	-0.16296673366822664
248	0xbfc4324940000000	-0.1577846109867096
249	0x3fd1904b04225aa7	0.27443194774370244
250	0x3fd5c368fef6f57f	0.340051888455342
251	0x3fa591fbe26ddd52	0.0421293939497739
252	0xbfd8665341e3e94b	-0.38124543604466926
253	0xbfb9b51cd8e0459b	-0.10041981024575934
254	0x3fb1772adc0ce7fb	0.06822460052799777
255	0xbfb8c64bf303afbf	-0.09677576716393242

mu.2.bias f8 [16]
0	0x3fd253315ddafb95	0.28632768788878
1	0xbfd74ada710351d8	-0.3639436820642721
2	0x3f432eecd603133b	0.000585427897043723
3	0xbfcba8581375484f	-0.21607495260338047
4	0x3fb84e86c9ff444d	0.09494821960039808
5	0x3fce40a77500845d	0.2363480874346661
6	0xbfcf4307c58b963f	-0.24423310418858254
7	0x3f999d304dc2dc93	0.025013689752736722
8	0xbfbc7ab9c78b15be	-0.11124764558470354
9	0xbfd14fdf4a668e7d	-0.2705000139778589
10	0xbfc32ac13b06e5a1	-0.1497422731606948
11	0x3fa57b49aef98e00	0.04195623646662838
12	0x3fd71477e1c3a8d4	0.36062428519529743
13	0xbf9ed280a5406b69	-0.030099878393325428
14	0x3fc28ac48aa3ec4f	0.14485985536143395
15	0xbfd048565b1c953f	-0.25441512010214135
