trained_models/MFoE/checkpoints/checkpoint_10001.pth (torch, 18958 bytes, 14 tensors)

lamb f8 []
6.74220465896481
00000000: 51c5 847f 04f8 1a40

Q_param f8 [16, 4, 4]
-0.0005728416628657393 -0.0017457609995456267 -0.004848885091513272 -3.9254567210566678 -0.002554739152239809 -0.000379599691794001 -0.0009431998552626632 -2.866297205408798
0.11565894699023302 0.0047835237367161625 0.003100869496454154 0.002208294742719743 -0.5312684229990512 0.0036988903988791145 0.015164877826260787 -0.0039054994645816086
-0.8217353485479292 0.0006788402818216822 -0.0007959793425199979 0.0028816505513974498 0.0037518918003191224 0.0016030861373922038 -3.020556168093583 -0.00038647019234898925
-0.003477607685435575 0.004557869970564048 -0.0005048623594005923 -0.0021515987765934295 0.0015200632351264507 3.163157950640639 0.0024456467770282847 0.0006663662663398077
-0.7307550999544072 0.3599027076655743 -0.6050606904269175 0.012438551745764817 0.0003282422233519258 0.001279390341876973 -0.00022741890635790755 5.969527334307813
-0.022310772067929936 -0.0141804793988186 2.920838085173529 0.018081166147129416 -0.02560230488531772 2.68005984760373 -0.019321314028145756 -0.017552548552136202
0.0023399936144260247 -0.0036319391779595636 5.0944125423453604e-05 3.663444129060741 0.22162332614596023 0.032898288327792125 0.010014034972210841 -0.00047579821535022565
0.44413104824140437 0.03301376542738528 0.011479208499955224 -0.0006756254271162524 0.0030620642063601527 0.0010248786930272702 0.0014358661371083779 3.784178223475681
0.008789755286383911 2.4392130502109444 -0.007650461817605496 -0.003944101641881339 -0.2488731970400973 -0.021546875176517963 0.4007512472933848 -0.040328673662255315
0.0057394479929494795 -0.013331792603442331 2.20824985155364 -0.028378954010501774 0.06057936259546717 -0.005443730354008082 0.410414492436278 -0.041000623957480505
0.00450623391536611 2.57206727393169 0.012151360045700416 -0.003484011080725916 -0.0029306036734516486 -0.009017075744044353 -2.455268602130852 0.002008248610054842
-0.00032379647865832625 0.0001245063294038034 -0.00015445578008033817 2.364991968382424 -0.0003375824316670088 -9.502075883869297e-05 -0.00034887245242462393 -3.5832859282520126
0.47730024195465387 0.001130250515161443 0.005140192237538809 -0.011322670046488697 -0.003741455955426055 2.547062242123083 0.008308403125517283 3.149580673055783e-06
-0.007719854003281829 -0.005022877959562528 -0.0025868983277061485 1.444800323387892 0.002239818932631406 0.006493351513484644 2.2608697686442643 0.0008915530865383076
0.0007836661061281969 0.0007551982664217405 -1.0230863033041657e-05 -2.608477138071042 0.0028185042935188415 -0.002112019191824877 0.00020732532443641977 -2.779898185093179
-0.4621057272849922 0.002055663928807903 0.0034398990209995413 0.00035889788511588494 0.0022306488947238775 -0.00411443857232524 -0.00028451380896154106 -2.256591362577551
-0.3130484266294294 0.45570595664805597 0.541144462633712 0.03667793590914421 0.0032712351821419616 0.006318512656502686 -0.00012173069075396099 -1.6311907246880342
0.0033638128045373164 -1.9220648133351717 -0.0015485898460268987 -0.007983163934989004 0.004281835195581063 0.0010329669771822175 -1.5911017440486106 0.002927602084462956
0.03964341495240433 2.439550336596867 -0.04024570483410675 -0.03379774282162956 0.005863084397956379 0.00010820018441141743 0.004897986182086882 0.009561743447534106
0.04152424137834478 0.0433061028224129 2.527637411604596 -0.051368890587558086 -0.028516595590321266 -0.026973291057531126 0.0028357131547018617 2.0323114982544537
0.03900190152474475 0.10701962333469234 0.061391858321928595 1.3261302443816965 0.024408761466758303 0.02962677152439852 -1.782147475119729 -0.03651549419474215
-0.032216358489966325 0.09034109819045835 0.045144063232612455 -0.2518472484641997 0.04069504011394764 -1.6535631707156704 0.03997875657662034 -0.04560517499766896
-0.0017439039756505597 0.002804739467548486 -0.010357678138593049 -1.725985136528755 -0.600740659789967 0.0008945045358379416 -0.0004376289679672069 1.3996908313123178e-05
-0.21731718315169218 -0.005412928837424203 0.0036301418387651666 0.01059020467229557 0.0005428150481431202 -0.0007150913188669557 -0.010750044000712526 -1.9226141325573862
-1.3539634309135298 0.04019763130399806 -0.04972301621687783 0.2624263593476276 -0.04456939144685053 0.0014054878526242231 -0.004344504973301621 0.008836028926328482
-0.0001876292593509977 -0.00025411086790806415 -3.064874673758649 0.00041642230172916987 0.005676560974861315 -2.834572188770888 -0.0030461719102513724 0.013146384891932667
0.03713165449880378 -0.033246204175145185 2.3769542730335953 0.041322892816487246 -0.0012051270445178187 -0.0005185316932681244 0.000982114359328402 2.398540163428778
-0.08651416986811099 -0.8843729715752895 0.07319460272696723 0.09103863034677051 -0.014156335809784567 2.5313419010263094 0.015369102258653967 -0.011151898724526394
0.002578142294141497 -2.3390396757771823 -0.005901806443846273 -0.00583229761000144 -0.003921198094187442 0.0016572916413057472 2.5018113880349215 -0.0045664484426306525
-0.09205306416321908 -0.013399584436955162 0.002939443861605085 -0.01049293121837657 0.0010055213789137308 -0.00047954916679564307 -1.695625910958997e-05 -3.0006168888266416
0.6581739719410807 0.40174669408955627 -0.23715811382593138 0.5935907361540717 -0.03424235955628182 -0.04817493880072635 -2.9451251181074043 -0.002845987200686459
0.03200594614867706 3.3056691304334063 -0.001639028929091375 -0.02113332273160521 -0.8446634635989716 0.2537538830442147 -0.1894883415716018 0.24108712791073653
00000000: 8303 991a 58c5 42bf 845e 9499 409a 5cbf
00000010: 86e5 3dae 6cdc 73bf 0d6a 76da 5567 0fc0
00000020: 0b50 7a23 aded 64bf b016 0743 a0e0 38bf
00000030: b0c6 1644 22e8 4ebf 9ec6 ae3a 2dee 06c0
00000040: d616 d022 d39b bd3f d530 2460 e397 733f
00000050: ee26 72a2 fe66 693f b8a9 6536 2117 623f
00000060: 9cb5 c5a2 2600 e1bf 92f8 6da9 224d 6e3f
00000070: 9735 7e72 c30e 8f3f cf92 320f 6dfe 6fbf
00000080: 6560 ffed a74b eabf af01 a267 863e 463f
00000090: 66fd 489f 2815 4abf 145b 0e5c 429b 673f
000000a0: 3d77 9392 49bc 6e3f 59e9 18a2 d443 5a3f
000000b0: 4d8b 2d5a 192a 08c0 64cb 46d6 e453 39bf
000000c0: db58 df68 127d 6cbf 6c6b 68e7 45ab 723f
000000d0: 2d2f 4ba9 178b 40bf f889 25cc 3aa0 61bf
000000e0: 4c7c 7e78 9be7 583f e2ab 70c1 254e 0940
000000f0: e0d0 989d e408 643f d061 19a9 e2d5 453f
00000100: 7c0f f684 5862 e7bf 6497 ca5d a508 d73f
00000110: 4152 af3c a85c e3bf 884b a927 6279 893f
00000120: f06f 4d9d fd82 353f 30ea 56eb 26f6 543f
00000130: 4d4f d587 e9ce 2dbf 70b8 05c6 cbe0 1740
00000140: 5565 8591 a2d8 96bf 3983 13ba a70a 8dbf
00000150: 41da a55b e05d 0740 0413 1a85 de83 923f
00000160: ae17 bd98 7d37 9abf 013f a637 c370 0540
00000170: 646e 776f f7c8 93bf c9b4 f897 4bf9 91bf
00000180: c574 7f81 522b 633f fe55 b17f bac0 6dbf
00000190: 07e4 28d2 9ab5 0a3f 0c50 a8cb bb4e 0d40
000001a0: 23f0 e934 275e cc3f 78ab ec60 0bd8 a03f
000001b0: ee35 a705 3d82 843f 2cad 40c6 912e 3fbf
000001c0: 2271 d5a1 a46c dc3f aa28 a825 2ee7 a03f
000001d0: 4aed ba48 6982 873f 4b56 918e 8e23 46bf
000001e0: 3c78 fc33 9d15 693f 4dc6 021e a7ca 503f
000001f0: d18c 6b86 7586 573f e781 803b ff45 0e40
00000200: 377a f5fb 5c00 823f 2e0f b521 8283 0340
00000210: 5204 e534 1756 7fbf 2910 06b9 b027 70bf
00000220: f2af 11b1 13db cfbf 3947 db50 6210 96bf
00000230: f533 3d8f e8a5 d93f ecdd f0bc f5a5 a4bf
00000240: 9e37 d456 3f82 773f cfa9 d4e9 b24d 8bbf
00000250: d38e eee5 7eaa 0140 0fab 7a5d 5f0f 9dbf
00000260: 04f3 511a 4204 af3f 4258 6b3d 2a4c 76bf
00000270: 435e b425 3b44 da3f 61a4 06a6 08fe a4bf
00000280: 1bc7 b6f4 2075 723f 1730 c501 9893 0440
00000290: 9052 fcef cfe2 883f d4df d134 808a 6cbf
000002a0: e79e ebdd eb01 68bf d8e8 686b 8b77 82bf
000002b0: 9461 68dd 63a4 03c0 9b0c 4743 9a73 603f
000002c0: 4558 5149 6738 35bf 9787 d239 bd51 203f
000002d0: f8e0 590c ad3e 24bf 9a0a bce8 80eb 0240
000002e0: de65 f380 b11f 36bf 9099 e434 bce8 18bf
000002f0: e135 0dc6 1bdd 36bf a579 10d0 91aa 0cc0
00000300: 2b5c 6450 168c de3f 8b11 ee3f 9d84 523f
00000310: 7fd8 e2d8 e10d 753f c9ae 6c0c 5730 87bf
00000320: cfaf f9de 66a6 6ebf 505c 362b 6260 0440
00000330: c00d a6fd fe03 813f f460 4c49 ac6b ca3e
00000340: ad76 9587 da9e 7fbf 4705 1789 de92 74bf
00000350: 8afd e576 1e31 65bf 3338 a3f1 e61d f73f
00000360: 5d50 11a2 3d59 623f 1703 45c6 c598 7a3f
00000370: d4bc a6e3 4216 0240 80d7 b6ac e336 4d3f
00000380: aeae fd25 dead 493f 5c7e 9aed 0fbf 483f
00000390: ea91 be1b a774 e5be c907 0343 29de 04c0
000003a0: 3223 75f8 d416 673f b4eb 6fab 394d 61bf
000003b0: 798a e6f9 ae2c 2b3f cc7a 7942 3b3d 06c0
000003c0: fcee 7ee6 2393 ddbf 7cc4 102b 0ad7 603f
000003d0: 56db 7eb9 fd2d 6c3f 567f dead 4e85 373f
000003e0: ba81 a781 0246 623f bfaa c031 4dda 70bf
000003f0: 4f4f 3781 59a5 32bf 3da7 b5c5 7f0d 02c0
00000400: 8902 9c44 fc08 d4bf b154 1951 492a dd3f
00000410: 918b 2d31 0e51 e13f 9ada 6d4e 73c7 a23f
00000420: 978f fe03 47cc 6a3f 4231 81d3 70e1 793f
00000430: e0c5 c357 35e9 1fbf a82d 0172 5b19 fabf
00000440: b904 883f 6d8e 6b3f 0d12 a108 c7c0 febf
00000450: e631 97af 415f 59bf 08b3 2720 7a59 80bf
00000460: c030 1c62 d489 713f 734f a1d8 93ec 503f
00000470: edc1 341a 2775 f9bf e9c8 ab66 a0fb 673f
00000480: c3d5 7145 244c a43f e108 85f7 3284 0340
00000490: 4448 22c4 159b a4bf d8ed 3110 f04d a1bf
000004a0: 1ef6 e2bb e303 783f 6c2b 8d03 315d 1c3f
000004b0: 5240 7e27 e90f 743f 71ff 327b 1b95 833f
000004c0: 8322 6c55 aa42 a53f e4cf adae 372c a63f
000004d0: 14e7 97f6 9938 0440 4cf2 35f2 054d aabf
000004e0: 7f93 d055 7433 9dbf 4791 d4eb e29e 9bbf
000004f0: d639 54e8 eb3a 673f 164d e287 2c42 0040
00000500: a8a9 0fa7 0ef8 a33f b4b3 4056 a365 bb3f
00000510: 7d79 77ef c06e af3f a9b1 dd58 d437 f53f
00000520: 013f f140 9cfe 983f 0028 22fb 7a56 9e3f
00000530: 829c 2412 ad83 fcbf 4836 baaa 28b2 a2bf
00000540: d5a2 389c a97e a0bf 5a76 361e 9820 b73f
00000550: f29f 6266 1f1d a73f da71 efeb 431e d0bf
00000560: 3f31 ccf4 fad5 a43f 7d80 c1a7 fe74 fabf
00000570: 640a 1078 1878 a43f 8664 49be 8f59 a7bf
00000580: 26f7 bca2 7692 5cbf 5f75 2e09 f7f9 663f
00000590: 9827 f106 6836 85bf 9c5e 2c97 a29d fbbf
000005a0: a39c e579 4439 e3bf c747 20dd a54f 4d3f
000005b0: 5d7a ee1a 32ae 3cbf 1ea4 2e6e 885a ed3e
000005c0: f667 3fa9 0cd1 cbbf a726 5105 de2b 76bf
000005d0: b459 468f f5bc 6d3f cfbb cd35 51b0 853f
000005e0: a223 9570 76c9 413f c908 02ea 9e6e 47bf
000005f0: af18 4f7b 1e04 86bf 0695 6209 07c3 febf
00000600: 9b0e fc8e d5a9 f5bf c898 a7af c894 a43f
00000610: 841a 0591 4b75 a9bf ee68 c0ed 97cb d03f
00000620: ba6c 559d ccd1 a6bf d720 2a17 0b07 573f
00000630: 7236 712c 8bcb 71bf f0e7 1eba 9f18 823f
00000640: 931e bc10 cb97 28bf d158 02de 45a7 30bf
00000650: 790e 5103 dd84 08c0 0f04 d12a 684a 3b3f
00000660: 513b da3b 4e40 773f 7760 072f 34ad 06c0
00000670: 1bd5 7017 49f4 68bf 8a30 5fe9 7dec 8a3f
00000680: d7fd 6f93 eb02 a33f 69f9 4b7f a505 a1bf
00000690: 4c22 169a 0004 0340 5d23 7232 4628 a53f
000006a0: 3942 994f abbe 53bf f030 0f55 c2fd 40bf
000006b0: 6bca 7843 4917 503f 838d 40d3 3530 0340
000006c0: 4760 39ea ca25 b6bf 083b cc8b c84c ecbf
000006d0: d2be f4a8 e1bc b23f 4013 03c4 4e4e b73f
000006e0: b17a ac3a fffd 8cbf 4138 bf2e 3040 0440
000006f0: 87f2 8efc d579 8f3f 4a2d 7b82 ced6 86bf
00000700: 8607 cf9a c11e 653f 5613 fc6e 5ab6 02c0
00000710: de46 9e1a 7e2c 78bf 528c ed77 9be3 77bf
00000720: 76f4 3599 ac0f 70bf 34d3 8e59 2f27 5b3f
00000730: 7cf6 62b0 b503 0440 fdfd 84ab 44b4 72bf
00000740: 9dde 1324 ca90 b7bf 6263 7ec7 3d71 8bbf
00000750: 4ef2 20e8 7514 683f 7c78 6063 517d 85bf
00000760: c8f3 055c 7679 503f 0a6b fbfc 7f6d 3fbf
00000770: 068c df40 a9c7 f1be 80af 6a6d 4301 08c0
00000780: 7517 92dc c20f e53f 3902 19c4 37b6 d93f
00000790: 9284 6e73 325b cebf 8fb0 dfff b1fe e23f
000007a0: ab3c ddec 3688 a1bf 7497 45b5 62aa a8bf
000007b0: 0d32 07c2 9d8f 07c0 7a01 75be 7750 67bf
000007c0: c5e2 f857 1563 a03f acdd 34a8 0272 0a40
000007d0: 8505 73e9 95da 5abf 6ac5 f347 f9a3 95bf
000007e0: d213 09ac 7b07 ebbf 371b 3aed 803d d03f
000007f0: b9fb 026b 2741 c8bf c17c ee68 f1db ce3f

taus f8 [1, 1, 16, 1, 1]
-0.00650291955850284 2.545790569286277 1.7883703666301016 -0.04722543397717104 2.2377579963779892 2.9937450695612546 1.3216669215006602 -0.01844764126200265
2.3320435993081934 1.2811575048810528 3.680226232978314 2.134551854716532 1.0328898186989937 1.2758253570897957 1.595798280591409 2.5163064814907217
00000000: b30d 512d cea2 7abf f465 2c72 c75d 0440
00000010: 33fd dc3e 2a9d fc3f af55 f19c ee2d a8bf
00000020: 9672 16aa ede6 0140 5b9d 729d 30f3 0740
00000030: 2cce c036 8c25 f53f ee72 a23f f0e3 92bf
00000040: a1ff 7e79 06a8 0240 48d3 0703 9f7f f43f
00000050: 622f 8473 1a71 0d40 3bfd 3cec 8f13 0140
00000060: cfef 7a79 b786 f03f 2abb 81d9 c769 f43f
00000070: 3c73 22c7 6388 f93f 4db9 e54a 6521 0440

eps_omega f8 []
-9.712019581815364
00000000: 6504 a4d4 8d6c 23c0

l_op.eps_theta f8 []
-8.663609369298658
00000000: f2e9 749b c453 21c0

l_op.conv_layers.0.conv_param.parametrizations.weight.original f8 [4, 1, 5]
0.6223349187427583 0.6781421652599852 -0.5028899981611996 0.3549241047915966 -0.26454373094692013 0.7700525402474915 -0.9463065500725021 1.0005707695108037
-0.04169746978404328 -0.7551534492922313 0.5389814961821832 -0.09402038261494294 1.030228642029311 -0.2727448831412983 -0.06460462672194972 0.019761247584409593
0.5256863464722197 0.17600916176621773 -0.49921066323143115 0.036108775553020014
00000000: 3c16 65eb 2aea e33f 8591 ba32 57b3 e53f
00000010: b0cf f2c3 ac17 e0bf 4516 a997 13b7 d63f
00000020: 99d8 31d4 48ee d0bf 0512 9239 45a4 e83f
00000030: d8a9 91ac 2448 eebf 8a1e c67e 5602 f03f
00000040: bbc9 18ea 5e59 a5bf cb7e 0591 372a e8bf
00000050: 510d 681f 563f e13f 0814 7d44 b811 b8bf
00000060: b1b1 4e07 d17b f03f e290 4ff4 a674 d1bf
00000070: 6ce9 f0c6 ed89 b0bf caac 69e0 4a3c 943f
00000080: 3ca9 412c 6cd2 e03f 1c88 cadc 7787 c63f
00000090: 8e2e 1948 11f3 dfbf 3a99 3274 d97c a23f

l_op.conv_layers.1.conv_param.weight f8 [8, 4, 5]
-0.8113915851297548 0.1721667444115142 -0.3648949789053683 0.7556821231731997 -0.43782795377431344 0.8658433533999287 -0.17682685721705751 -0.05343573100975304
-0.07071237260923258 -0.1004508179970718 0.9392941313013032 -0.21203016669539732 0.16893683637376947 -0.25505822151785085 0.14246712887125187 0.20232604042807129
0.02592504757474512 0.19808746702945995 -0.09259485220800993 -0.06973995267241771 0.10524400269582476 0.32997508185181 -1.5783015523249502 1.8202383772669581
0.6205863351771942 -0.16940392111156966 0.5139719881511909 -0.7741526302682186 -0.19110439089840417 -0.1414405922701016 0.36286828899818424 -0.07179325773145465
-0.2478794044421391 -0.37628135307262944 0.4375518182511117 0.5417228164344501 -0.3522385675405538 0.09257572056562136 0.1334084619714952 0.023383688276041977
-0.05498246429612853 0.2515518259024542 -0.8331911182114737 0.9543436199101463 0.3482842893221372 1.3064454153179845 0.42731171362380854 -0.26810125995635653
-0.8372606770466474 -0.4605835451762978 0.7931409695745391 0.11327169304923503 0.2596187016762964 -0.7704463908619076 -0.0550773653414423 -0.2368720285437749
-0.6156307808054186 0.36082249080586737 0.1654114695013564 0.28038125736225106 0.4342409399642962 -0.2313101328331796 0.37029395175248775 -0.01130357765169767
0.30792612496560706 0.7914419462294079 0.5773933617673386 -0.07443536533595536 -0.3823213542215206 -0.24207130482226794 0.6525863846990769 0.26728444663908135
-0.08760505005490095 -0.056564483224704726 -0.5145300501711282 0.25076929970337736 0.4724381189170583 -0.0993507193749645 -0.006436728817816083 -0.3375638635041667
0.4039471711860482 -0.44030795067009354 0.9741266395565883 -1.5957009476563635 0.22541274733442065 0.5300611562059412 -0.09627804005556953 0.3594567582708549
-0.33910520144094164 -1.3033713217112508 0.37622214800693665 0.23404721444702786 -0.00017090873280858475 -0.02350458885090537 -1.2448410387677693 -0.03287300610517188
0.6238722718409603 -0.48467520505224615 0.14225383031954825 -0.312359840875117 -0.3133951126374164 -0.13219766515676495 0.4484476145839546 -0.19275450274590136
-0.4145674762116265 -0.974433451175219 -0.3569857411334653 -0.07600824922458872 0.5155338691616637 -0.0015852587078440182 -0.485933759809525 -0.20485153817054294
0.02930043689752384 0.38495907319839595 -0.33252623669931297 -0.4079410373887578 -0.3251874894605149 0.004485456317648755 0.053242651620144923 -0.3794049866670676
0.7111407483092748 -1.071854274046007 0.6896062152220833 -0.7459461103191273 0.39633241956690635 1.0079983392573617 -0.18687534202357925 0.6924870532116768
0.5236845265015295 -1.506895903986244 1.1561501445877629 0.032733340458399734 -0.025536076587362753 0.4845361177604731 -1.0679577936763642 0.29327435503110616
0.25450029198898316 -0.30153528365983934 0.49211685635409685 -0.8070595110175217 -0.3647502261357119 0.9819001899276892 -0.1757509226949811 -0.4175586511344189
1.221862372954817 0.645143669658889 -1.4860824066129075 0.9925890655553501 -0.6995396088165384 -0.8737549514302883 -0.21206309741519405 -0.9077384839214011
0.6362202674990376 -0.3394445176214455 -0.6062414797326318 -0.6044978427340751 -0.39299036058761794 -0.2616947573131286 0.5940296947818631 -0.17385126524642538
00000000: 8038 4c7c ebf6 e9bf 3666 5a54 8f09 c63f
00000010: f7e1 3778 705a d7bf 6f6c a646 8c2e e83f
00000020: c30e af89 5f05 dcbf 27f9 c91e fdb4 eb3f
00000030: e19e 6630 43a2 c6bf 3bde 3f9a ed5b abbf
00000040: f87a c7bf 341a b2bf 2164 2712 25b7 b9bf
00000050: 4671 e890 b20e ee3f bc6f dcf3 cd23 cbbf
00000060: 5553 a8e5 b89f c53f 9aaf ffb7 df52 d0bf
00000070: d3e6 a0e5 5c3c c23f 4e45 62d7 d1e5 c93f
00000080: 2050 ec7d 188c 9a3f 0acb 511c ee5a c93f
00000090: 3be8 02d6 4bb4 b7bf 07df f33f 7ada b1bf
000000a0: 7ebf ad5d 45f1 ba3f c219 43ce 4f1e d53f
000000b0: 1963 e720 b940 f9bf 3592 d446 b21f fd3f
000000c0: 03c7 bddf d7db e33f 7082 7e16 07af c5bf
000000d0: 416c 0562 7572 e03f fda8 a3bc dbc5 e8bf
000000e0: 35ec 83d2 1b76 c8bf 1f40 10af b91a c2bf
000000f0: e02b 80ea 3b39 d73f 52a7 07fe 0a61 b2bf
00000100: 3129 b727 83ba cfbf 20a9 6262 fe14 d8bf
00000110: 3768 6c57 d900 dc3f baa7 8216 cb55 e13f
00000120: 0e80 fea1 138b d6bf 78a4 3bdc 0ab3 b73f
00000130: 86af 964a 8713 c13f 9f30 9fc1 e4f1 973f
00000140: 82be 025c a926 acbf 1202 60d4 6c19 d03f
00000150: 8026 816b 80a9 eabf 7221 95a1 fb89 ee3f
00000160: fc58 1630 4a4a d63f 50cc cc4e 33e7 f43f
00000170: 0191 cd3a 1359 db3f 3fda e12f 9228 d1bf
00000180: a58c 44e7 d6ca eabf 73e8 e667 337a ddbf
00000190: 9017 ae2b 6961 e93f 0182 35a9 5fff bc3f
000001a0: 924c 48c2 979d d03f 0d57 8230 7fa7 e8bf
000001b0: 875d c8b5 1933 acbf 7162 f797 d251 cebf
000001c0: 050c bf52 3fb3 e3bf 9a09 6b37 b717 d73f
000001d0: d720 f2f9 332c c53f 0410 b23a c4f1 d13f
000001e0: e9c7 ee82 9aca db3f fd3e e007 929b cdbf
000001f0: 11bf 2b67 e5b2 d73f 8c15 bc82 5426 87bf
00000200: 33ec 13c7 0fb5 d33f db9c 770f 7e53 e93f
00000210: a0fb b6a4 017a e23f 35a3 c833 320e b3bf
00000220: 3e68 3cfc f377 d8bf fd7e c148 31fc cebf
00000230: fc1d 83d7 fce1 e43f 00d6 4239 301b d13f
00000240: 1943 f3d8 486d b6bf 1c68 211b 05f6 acbf
00000250: 5f6a 49b9 0777 e0bf ea46 44ad 9a0c d03f
00000260: 477b 8817 6d3c de3f 0daf 8c7a 0c6f b9bf
00000270: 7279 403c 665d 7abf 98f4 8376 a59a d5bf
00000280: 1392 633c 45da d93f 50ff 1266 012e dcbf
00000290: 89da 61a1 0b2c ef3f aa15 86b7 fd87 f9bf
000002a0: 8590 f32c 53da cc3f 561a 59d0 42f6 e03f
000002b0: 0a95 5c79 ada5 b8bf 325e 46eb 5601 d73f
000002c0: d7e8 854d e6b3 d5bf b4b4 14e3 9bda f4bf
000002d0: 5e1f 6e0f 0614 d83f 8a8b e255 42f5 cd3f
000002e0: 64e3 05d6 be66 26bf 89a8 ae41 9611 98bf
000002f0: ab9e e36f deea f3bf 042d 490c bbd4 a0bf
00000300: 4b05 8efb c2f6 e33f 5a6a b826 eb04 dfbf
00000310: 3a02 7a9e 5f35 c23f f11c 4921 b4fd d3bf
00000320: 8c40 e05f aa0e d4bf c259 3a64 daeb c0bf
00000330: f7dd a69f 5db3 dc3f 55a6 b9f6 2dac c8bf
00000340: c01b 1406 4688 dabf 9da1 9d0f 8f2e efbf
00000350: 9b9e d3b8 dad8 d6bf d954 a5d0 4675 b3bf
00000360: 35f3 80e2 407f e03f 9eb0 9393 0ef9 59bf
00000370: e4de 99e9 8919 dfbf d127 7d40 9338 cabf
00000380: 46fa ee08 ef00 9e3f 8ee0 6b61 2ba3 d83f
00000390: 4ddf eb1f 1c48 d5bf 5dfc 91b9 b41b dabf
000003a0: c847 1330 dfcf d4bf 922d 1283 575f 723f
000003b0: baf3 ebee 9e42 ab3f e728 6bda 2b48 d8bf
000003c0: f3eb 1a3e aac1 e63f cfaf d1aa 5026 f1bf
000003d0: f1e8 af0d 4111 e63f 19c5 8c60 cade e7bf
000003e0: 3a9a 18a7 825d d93f dd85 d8dd c220 f03f
000003f0: 6cc5 35fd 87eb c7bf 7152 ce9b da28 e63f
00000400: 9ed9 570d 06c2 e03f 6f8e 21e1 3e1c f8bf
00000410: 6252 444b 977f f23f 14ec 83a5 6cc2 a03f
00000420: d655 3e17 2126 9abf 36c5 e0c6 a302 df3f
00000430: a392 55e9 5a16 f1bf 514d e7cc 01c5 d23f
00000440: 8c91 ba97 bb49 d03f 952e 7aa5 5a4c d3bf
00000450: aa79 f6b2 d77e df3f 4bdf b777 6ed3 e9bf
00000460: 0189 1d55 1158 d7bf a19e 75f2 b96b ef3f
00000470: 0ebf 9b98 017f c6bf 6030 b2eb 47b9 dabf
00000480: c0dc 408f bf8c f33f de00 4d56 04a5 e43f
00000490: bc03 7958 fec6 f7bf 7fad dd24 4ac3 ef3f
000004a0: 12f5 c3e3 a062 e6bf 988e a3f1 ccf5 ebbf
000004b0: a919 0b32 e224 cbbf d26a b893 310c edbf
000004c0: 5ebe 3e9b ea5b e43f 0f66 7f7f 75b9 d5bf
000004d0: 05c5 1d88 5466 e3bf f373 21dc 0b58 e3bf
000004e0: 047e 970a c126 d9bf 6973 0c5e 9bbf d0bf
000004f0: 601c fe8f 4a02 e33f d501 4d1d c240 c6bf

l_op.conv_layers.2.conv_param.weight f8 [16, 8, 5]
0.3485930920257992 0.2693377914572804 0.1669881369916822 0.03849258289853375 0.179935509927137 0.308710550818944 0.7256898488213637 0.720046032641879
0.24332452697615456 -0.5804713670885824 0.4140085373683375 0.617859987585966 0.9017663790670304 0.39591469856980144 -0.3389223690116575 0.7678663981067203
0.37014107619974573 0.3883647058746004 0.19963506404734777 0.08371716135481835 0.040034916509908924 -0.16650979583928238 0.11741756190764259 0.0356788355733438
0.36763304832606997 -0.8908358882168377 -0.6176741378723979 -0.6462524026958545 -0.3213451231094188 0.24764633192614435 0.7325641536179486 0.010114811255931897
-0.13875583205287603 0.10641948361731636 0.5521148705177614 -0.533408947036572 0.40862070575302567 -0.033008909970987 -0.8226853631358816 -0.43202915531324204
0.006113039397194176 -0.09701174418243068 -0.22443199307132805 0.2432810355228451 -0.2091451901381973 1.073830468034637 0.07878168075985927 0.3530962075260089
-0.45469926688198176 0.2715820173156248 0.561331605861276 0.34615378320259793 -0.27442383819705946 0.2564941712072686 0.17165122966583124 0.8049763596766663
-0.3939134880788478 -0.03296485073563125 0.0978621004234503 -0.19785579156477948 0.10458852229618329 0.3342490606365946 -0.05440861083340936 0.21264969317460208
-0.1020441833940883 -0.30135525817196146 -0.03811674122304875 0.16270259456339475 -0.43409281618985546 0.30136344516568037 -0.896056942668048 -0.16832687009748956
0.16249833390881466 -0.18050143372386407 0.4928396445169365 -1.9564285299001272 2.261312104331531 -1.7314482617724232 0.2999862416476615 -0.6910727738049969
0.9087338557020145 -0.6496009704195529 0.1779636739478325 0.08194153943560048 -0.3305389133208822 -0.49465377358693796 -0.7290285710110898 0.7790870755683718
-0.4137573364286171 1.999644093084184 0.8625503692324057 -0.954405924207362 0.5924143731570364 0.11550358197962549 -1.1806254855571854 -0.4163386249294792
-0.4697287217048772 -0.5671226960210317 0.047138209195970414 -0.6249652905646259 0.4764941633762019 0.2898198383159256 -0.050129426480701705 -0.6279137566177758
-2.70934033369951 0.2900607297094133 0.3592952321864033 0.4429274919324691 0.31917380560672165 -0.6825614332142436 0.12134606820960658 -0.7487133202930915
0.6902041505119809 -0.5528560022217469 -2.0531414517994295 1.9205021652475498 -1.1100828956245608 2.1101371314095396 -2.069265358883008 -2.2659627173740393
0.7965948453541812 0.23952468119877587 -0.10062881356714216 -0.24568833207415045 -0.21514895986554947 0.7237594120693196 1.2675954887470076 0.6399095190353233
0.044160580856374566 -0.44866444131682115 0.6034457870824315 0.9548139049108831 0.5872528187677133 0.3145969904285803 0.36876269679811524 1.0647470529194227
0.7373176148815885 0.28416394093978825 -0.37347217488234563 -0.17145663267461955 -0.14081340350681257 -0.3291121902621753 0.07722869855752412 0.1384538356787312
0.23996653871342888 -1.3275029989885647 -1.1044253160479787 -0.5693534732497862 0.11117047337750903 0.4677278463981241 0.38990126156084615 -0.23447785504628565
0.20205468299172055 0.29465444366460514 -0.19154019810523729 0.37465849299013226 0.40118046888181397 -0.1115642586429654 -0.995565929547093 0.08057866101261366
0.1206016862658517 -0.10932443685537802 -0.21526180465192188 -0.1327443906884716 0.08183746431153392 0.4458828601044443 0.2539812627817558 0.11416630741565599
-0.06010239849782467 0.046365276317440925 0.06847913521449013 0.3184867149174753 -0.07956406589916803 -0.08206860390725298 0.11624976509934652 0.2924571712017485
0.00597972475641323 -0.06603719006380092 -0.14106857581000892 0.2852538592585449 0.03513640098780072 0.17210260477303493 -0.11038708958926922 0.06566350487752182
0.26924855726330715 -0.08182263056318688 0.15054989767025992 -0.17472680249757172 -0.22405251330349876 0.14397456360692623 -0.4845825611411034 0.42707410491471726
-0.0911394779599755 0.07476067572741328 0.09124607891168307 -0.9872291366062338 1.2215551578564987 -0.2592500824831184 -0.2664851899927323 -0.7324654709515356
-0.006972909124403098 -0.8481536766413204 0.02681588607767786 0.7947257453058708 0.32695831356844113 0.24974928489067338 -1.3016880345629804 0.9714439516001835
0.6972059996526915 -0.11528371323851384 -0.1641834867744314 -0.7312037082150706 0.5541285041527425 0.8163909319177032 0.43881475002581194 -0.8361264765867196
-0.42192135616783505 -0.5078789251349396 0.7704063002987854 0.5090382309994208 -0.20595919730248655 0.796046556774159 -0.2982419096048476 -0.14828082130712433
-0.3807868952181425 0.65388072300974 0.44406085779305277 -0.16414266540479328 -0.40428208436465707 -0.4313814006351885 -0.8059626781945318 0.5801185432579586
0.09458212727877373 0.8895840874494602 0.08021466408893295 1.5461932592275247 0.16524646207858804 0.496050514093338 -0.8770615265737557 -0.40921715503295747
-0.06007310377977077 -0.11109186764427147 -0.224171042366421 0.19350007343623474 -0.07391695902138584 0.08365089781244285 -0.19933552167909935 -0.04731995478743504
0.19500006269498898 0.07997576398496486 0.22248768402815694 0.002725130977951213 -0.05779751019776236 0.23884276461384785 -0.5349604657040674 0.1706259405377235
00000000: 5930 7766 594f d63f 61b2 7893 d43c d13f
00000010: ca80 9905 de5f c53f 9123 60c1 4cb5 a33f
00000020: 7358 4375 2008 c73f 03a4 ece5 e9c1 d33f
00000030: 1a43 f7ea d938 e73f 25f7 39fa 9d0a e73f
00000040: 3fb0 d612 4225 cf3f ac1d 3db0 3893 e2bf
00000050: 63c1 10aa 1d7f da3f c009 064f 82c5 e33f
00000060: 1f35 572a 45db ec3f 503b 979a aa56 d93f
00000070: 2a6d b272 e7b0 d5bf 0d1a 728d 5c92 e83f
00000080: 25c9 4b32 64b0 d73f 7bbb a9a3 f7da d83f
00000090: c4ee 9b4b a48d c93f ba05 22e6 7c6e b53f
000000a0: 585f 37e2 747f a43f 0cf3 cb67 3150 c5bf
000000b0: b58f 5ecc 130f be3f 8bcc e40f 7f44 a23f
000000c0: 0150 dfc3 4c87 d73f 5ed2 bf43 ba81 ecbf
000000d0: f7e6 b78d fcc3 e3bf a448 d184 19ae e4bf
000000e0: a3fa 9e22 eb90 d4bf 6f6f 4c00 e0b2 cf3f
000000f0: 305a 4061 2a71 e73f e540 65fc 12b7 843f
00000100: 7def 6548 c0c2 c1bf 2928 cba9 4e3e bb3f
00000110: 384a 10ce ecaa e13f d54e dda3 af11 e1bf
00000120: 2e5f eb75 d726 da3f 6a9f 9a39 8be6 a0bf
00000130: bb20 3241 7053 eabf cc49 3f9d 5da6 dbbf
00000140: da48 a484 fc09 793f cb69 97fc c2d5 b8bf
00000150: 166f 3503 30ba ccbf 8d60 a73d d523 cf3f
00000160: 672f e103 45c5 cabf a583 5adb 682e f13f
00000170: b933 6346 092b b43f 149d ead5 2099 d63f
00000180: 8b7d 31f4 ca19 ddbf 1e59 a38a 9961 d13f
00000190: b954 2cb3 6df6 e13f 2e7a 8f32 6227 d63f
000001a0: 8925 9300 2990 d1bf 3cca 3c87 666a d03f
000001b0: a8d0 dde0 aaf8 c53f 49a9 5bc8 5dc2 e93f
000001c0: bd1f 30eb e035 d9bf 1d74 a7d7 c4e0 a0bf
000001d0: 8d2a d698 7d0d b93f 5b26 0cad 5653 c9bf
000001e0: 1e90 cc3a 50c6 ba3f 07c9 092c 5664 d53f
000001f0: 17f2 4c08 72db abbf a23c d8ea 1a38 cb3f
00000200: eab4 6c4e 911f babf a5e0 9490 6749 d3bf
00000210: 7f57 f799 0984 a3bf 6ce3 4f49 70d3 c43f
00000220: a9b1 3d3c 2dc8 dbbf 3c93 4ce7 8949 d33f
00000230: ce9d 039c 7fac ecbf 3faa 0d21 bc8b c5bf
00000240: 017c e5d2 becc c43f 54d0 5cc5 ab1a c7bf
00000250: 2cd7 d74a af8a df3f 541e 8e00 884d ffbf
00000260: 1239 f1cc 2a17 0240 2a75 b017 03b4 fbbf
00000270: 301b 487e f932 d33f 3ec0 54a6 441d e6bf
00000280: a542 e005 5914 ed3f e6db 6cf9 87c9 e4bf
00000290: 77b0 bd7f 83c7 c63f f24e 0fe8 1efa b43f
000002a0: 3730 b1af 8c27 d5bf 5e87 194d 68a8 dfbf
000002b0: aaf3 cab9 3354 e7bf 91ad c904 48ee e83f
000002c0: 0439 1c0d 007b dabf 78fa f6cd 8afe ff3f
000002d0: 6430 603b 039a eb3f 6b89 f24a 7e8a eebf
000002e0: 5679 ccfc 0ef5 e23f 6e60 2c8b a491 bd3f
000002f0: fbac 948c d7e3 f2bf ed8e 88c2 4aa5 dabf
00000300: a1b7 6d0e 0910 debf 8b59 077f de25 e2bf
00000310: 9b03 c7d5 7f22 a83f ce86 8335 b7ff e3bf
00000320: fce1 1b60 e17e de3f 5021 d381 688c d23f
00000330: 1c8c 9a6e 90aa a9bf 1f38 2c97 de17 e4bf
00000340: f4c8 f79f baac 05c0 402c fde0 5a90 d23f
00000350: 675b f66d b1fe d63f 415a 168d ec58 dc3f
00000360: db86 34f8 576d d43f 6650 2513 8bd7 e5bf
00000370: b05c 7532 8910 bf3f fba0 17a3 75f5 e7bf
00000380: be65 c003 2716 e63f 1312 1e12 ffb0 e1bf
00000390: f752 ec6c d56c 00c0 a82a 7a7a 60ba fe3f
000003a0: 4de7 4848 e6c2 f1bf 75d5 8b93 8fe1 0040
000003b0: 8f2f 19ff da8d 00c0 449d a80f b120 02c0
000003c0: 19ab 1e79 b47d e93f 5fb2 2aa8 bea8 ce3f
000003d0: 4960 4e57 cfc2 b9bf b535 a21b b772 cfbf
000003e0: b30a 3249 008a cbbf 3a51 a07f 0929 e73f
000003f0: c99b 0b35 1248 f43f 57fc 1487 237a e43f
00000400: 25da 1935 379c a63f ee5d 950f ebb6 dcbf
00000410: 5cb2 0d8a 6d4f e33f 2b77 ebe3 d58d ee3f
00000420: a6ea 626c c6ca e23f c7e3 536a 5b22 d43f
00000430: 0ce4 aeda ce99 d73f 22d2 ac34 3409 f13f
00000440: f2cb 551c 1b98 e73f c87c 42f4 bd2f d23f
00000450: 927b 45d6 f7e6 d7bf 0588 027b 4af2 c5bf
00000460: 233a 7371 2c06 c2bf b205 7993 2c10 d5bf
00000470: 6001 9e8e 42c5 b33f ee79 1ff4 dab8 c13f
00000480: 9049 f439 39b7 ce3f 04f7 dfc8 733d f5bf
00000490: fbce 54e1 b9ab f1bf 5619 6fc6 2438 e2bf
000004a0: f5ee 6f0b ab75 bc3f 5157 edc6 40ef dd3f
000004b0: a4ab c46b 24f4 d83f eaae 87cf 5e03 cebf
000004c0: c3fe b987 eddc c93f 8246 ca4f 9edb d23f
000004d0: 0d9d 5da3 6384 c8bf bdeb a39d 67fa d73f
000004e0: a90b 69d8 f0ac d93f 4a26 46aa 798f bcbf
000004f0: d354 8d14 addb efbf 46fd cd99 cda0 b43f
00000500: 73b2 5a8a c0df be3f 1c8d f2b0 affc bbbf
00000510: bf6a 87e5 b28d cbbf e201 5ea8 c4fd c0bf
00000520: 273c ced0 4cf3 b43f c9b6 7f43 5889 dc3f
00000530: 6e71 5ca0 3a41 d03f 5dc3 a7cc 003a bd3f
00000540: 882b ebd7 bdc5 aebf a125 e882 30bd a73f
00000550: 7960 343e d987 b13f 6dfc 311a 1662 d43f
00000560: 6c45 f984 4f5e b4bf 165e cfb1 7202 b5bf
00000570: cbf5 446b 8bc2 bd3f 20b3 7248 9eb7 d23f
00000580: c138 4924 327e 783f 87cd a433 d0e7 b0bf
00000590: d673 ccfb 880e c2bf ebaf 2467 9941 d23f
000005a0: f592 48fa 65fd a13f 9f3e 8749 7507 c63f
000005b0: a7c0 af0b 5442 bcbf 805c fdcd 52cf b03f
000005c0: c73a fc4c 5e3b d13f a371 57f2 53f2 b4bf
000005d0: 0778 7413 3845 c33f b219 3ba7 725d c6bf
000005e0: 21d1 9cb4 c0ad ccbf 36e5 122d c26d c23f
000005f0: 8707 1493 6603 dfbf 93f0 64a0 2e55 db3f
00000600: 736d 36b5 ea54 b7bf 8fae 4601 8423 b33f
00000610: ac5c d02c e75b b73f 163a ec8e 6197 efbf
00000620: 7b0f d46b 7d8b f33f da04 70a8 8d97 d0bf
00000630: c4c6 f8e5 170e d1bf 65f4 656d 5b70 e7bf
00000640: 204e 5b0a a08f 7cbf 1d03 e52d 1324 ebbf
00000650: ec17 dea6 9f75 9b3f 1718 acaf 646e e93f
00000660: 15a2 fb8f e2ec d43f a404 67d9 c8f7 cf3f
00000670: 28ae 20d5 b6d3 f4bf 29a2 40a0 1116 ef3f
00000680: 5faa e2f4 824f e63f a1f0 1ec2 3b83 bdbf
00000690: b0a5 1ee9 f603 c5bf caec af51 0566 e7bf
000006a0: fbc1 63b3 6bbb e13f c8cc 2ae0 df1f ea3f
000006b0: f03f 1776 8a15 dc3f 384f 0850 8cc1 eabf
000006c0: 7163 8e6e c200 dbbf c407 b94d 8b40 e0bf
000006d0: e94c 0d1d 2ba7 e83f 70cc 518b 0a4a e03f
000006e0: 67bf 5cf8 de5c cabf 8a07 eea0 3679 e93f
000006f0: 8329 033c 6516 d3bf e2ad 11af ddfa c2bf
00000700: 6b44 6dff cf5e d8bf 2ff9 1944 97ec e43f
00000710: 5de9 693b 7e6b dc3f 985b e579 a002 c5bf
00000720: 541d adf6 c1df d9bf f62b f5bb c09b dbbf
00000730: f98b 143e 72ca e9bf 3313 63c3 5490 e23f
00000740: 23cd 72c7 8836 b83f df65 540c 7977 ec3f
00000750: 7fed ebbe f288 b43f 8dd8 9a24 35bd f83f
00000760: 6f20 34cb cb26 c53f d078 cca7 4abf df3f
00000770: 09da a655 e310 ecbf a709 7526 9d30 dabf
00000780: 99e7 34e0 e6c1 aebf 973a 6242 8470 bcbf
00000790: ea45 d6ff a2b1 ccbf 3353 9743 9cc4 c83f
000007a0: 18db 9dc9 38ec b2bf d1ae 622e 256a b53f
000007b0: 7a7b 458d d383 c9bf 253d 8534 523a a8bf
000007c0: 3e18 ff15 c3f5 c83f e8bc c9aa 4a79 b43f
000007d0: a2f4 54f7 797a cc3f c209 af8d 0353 663f
000007e0: 20e2 2da0 a297 adbf c28b 7353 6692 ce3f
000007f0: c242 1b69 651e e1bf c0b8 3a21 12d7 c53f

mu.0.weight f8 [16, 1]
-0.3214019536972046 0.01256236825857156 -0.3995413686897659 -0.043079348250723105 -0.3696294713507677 -0.23219491033641546 0.018833702085148105 -0.724919289622227
0.0651165246963501 0.4004755026360124 0.7292643694302408 0.6252206039370697 -0.6302681478835314 -0.567196736476367 0.4772602166455975 0.769103868205535
00000000: 0000 0080 d991 d4bf eaa0 a586 4cba 893f
00000010: dffb faf5 1592 d9bf 0d5d bd0f 7f0e a6bf
00000020: 5bb7 c55e 02a8 d7bf b3a5 1815 90b8 cdbf
00000030: fcc1 125a 2449 933f 3458 25f0 8932 e7bf
00000040: 0000 0000 7aab b03f f6ee aa00 64a1 d93f
00000050: 08e9 1a3b 2256 e73f 1f3e d6a3 ce01 e43f
00000060: 29d9 5b1b 282b e4bf b00b 32c5 7926 e2bf
00000070: 8c2e 8b6f 6e8b de3f 8d6f 25b7 7f9c e83f

mu.0.bias f8 [16]
-0.8585120439529419 -0.05314558000390549 0.07650709859711512 -0.0944037833405001 -0.7599547100404938 0.21429442352573985 -0.0848719632873934 0.27588069263087067
-0.6762855052947998 0.8751310048588193 -1.1617195499202202 1.3984917812931728 -0.5148135577098993 -0.16842305784826303 0.09299364616146208 0.21168466517683018
00000000: 0000 0040 ee78 ebbf 3563 16c0 e535 abbf
00000010: d7ee 621e f895 b33f 15ed 10aa d82a b8bf
00000020: 2a15 428a 8c51 e8bf 8a0d 61ea ff6d cb3f
00000030: b5aa aa42 2bba b5bf 7ea2 1c7e 07a8 d13f
00000040: 0000 0080 21a4 e5bf 25b2 b2bc 1201 ec3f
00000050: bc7f 203d 6796 f2bf 3a10 06eb 3860 f63f
00000060: 7cd8 3c48 5a79 e0bf a7e0 ac02 e38e c5bf
00000070: 86d0 ff7c 6ece b73f a5e5 ffac 7b18 cb3f

mu.2.weight f8 [16, 16]
-0.03833875060081482 -0.008433229810414479 -0.30032414854417555 -0.2658753528058862 -0.09605076909065247 -0.024485403705647852 -0.10291043664182642 -0.09724105836603317
-0.09243160486221313 0.03701918049627756 0.07311875788172695 -0.07958532249641935 -0.1277904212474823 -0.3037581340223541 -0.09052623498997117 -0.2534873547319729
0.20554843544960022 -0.1497394694320276 0.21787390522565983 0.20656809154923642 0.02038811177483918 0.20230718329906147 -0.20421668171230892 0.3648098597172248
-0.04276189208030701 -0.13642264175936075 -0.45121147199861955 0.26140991150026327 0.24386038230065618 0.33592439302024446 -0.9623133449291205 -1.0002595944610184
0.04065433144569397 -0.01197525827817181 0.016667807552292496 -0.35990236126853437 0.0074766576290130615 -0.24252442673654986 -0.09804569127677926 -0.16624558571051581
0.13255459070205688 0.45150191730199507 0.29197852786016587 0.6310587296663481 -0.07346891511866234 0.14377366047052387 0.23211389187783849 0.4760273341002523
0.24088504910469055 0.06886453352627864 -0.31021271667387873 0.16978744133945134 -0.01264008601829827 -0.009870909596786792 0.1384614467829241 0.11914816280325669
-0.19488370418548584 0.21880486598323512 -0.12123662468312782 0.021901202384179284 -0.12380686805073406 -0.13880359752335272 -0.015713994172165544 -0.041464984083127314
-0.03949397802352905 -0.02125500364156292 0.294046418102359 -0.022152037895536627 -0.03117871893340898 0.23094316648333651 0.018822747066375708 0.05884403702309042
0.01987805962562561 0.26432732150579347 -0.39676855081481005 0.14255015114932773 -1.4381075241780237 -0.1791458709314551 -0.10343784146286446 -0.20082772451173558
0.03891569375991821 0.12098000410574611 -0.11755490742471893 0.17283592219081492 0.19739043712615967 -0.2316916237024305 -0.2266160162205143 -0.23758282389755175
-0.1370050609111786 -0.1277619851769008 -0.034412320189885534 -0.0964553016175626 -0.12631213665008545 -0.11173017590187466 -0.11975772158921787 0.2140512507205561
-0.09265720844268799 -0.15842654415869178 0.15169289731435653 -0.16547564267604528 0.10493899986338281 0.2960335846397522 0.07687296416714677 -0.1273709549518406
0.16071584820747375 0.37196560487630065 -0.5660723099270023 0.4960242809491106 -0.8631731407095521 -0.09160896228942152 -0.26741462329009896 -0.5175455102299346
-0.21804594993591309 0.01178622862880849 0.07243519924069317 -0.24674842456832455 0.12689937004508445 -0.2254387680218113 0.12221157485679389 0.28612298407472103
0.0680646002292633 -0.36371248306433773 0.024597817358176014 -0.20759229280719807 0.24308778762821134 0.11337621936246224 -0.10881874928681659 -0.4369685689202475
-0.05623626708984375 0.040505049214364125 -0.00043163262503317386 0.1739230824630502 -0.15897348552453872 -0.036775982037434346 0.019041469700007526 -0.09406914173576399
0.17042917013168335 0.027345389127731323 -0.23105749487876892 -0.054754341790161296 -0.14105987677906384 -0.0033791012836732553 -0.029053986072540283 -0.24798354506492615
-0.045556336641311646 -0.05173928463239744 -0.1015140887862945 0.2019006485046602 -0.08234424336915899 0.132809831123889 0.034134967231024896 -0.23882775264535822
0.058746516704559326 0.20718389749526978 -0.16352516412734985 -0.1615937352180481 0.21691780054105647 0.17308301959014136 -0.13947349786758423 0.15043625235557556
-0.031983017921447754 -0.31370521261527184 -0.0981889204643093 0.023134857343060245 -0.102661652629547 -0.027854889870577302 -0.296924325738984 0.058912541324731074
0.2131335735321045 0.05206723669202934 0.006593125681811251 -0.015899476559373894 -0.20855888987172505 -0.17380751702455446 -0.0825147750945498 -0.1935315641487314
-0.18465501070022583 0.18574065883652088 0.02001028418900544 -0.25107122875391424 -0.023149085845918498 0.08455230400615353 0.2634980582350447 0.05037491716191595
0.2298341691493988 0.012675615856551761 0.1030073422397766 0.4594029538883757 -0.33760218288991084 -0.34477505459082486 0.02423735891723998 0.17480875973749516
-0.12420326471328735 -0.11297713461170748 -0.12188713539294296 -0.14189903567167678 -0.14076597701728608 0.03821657110147315 -0.04281040112098892 -0.29357914955229975
0.002421855926513672 0.213445402841803 0.23913611698403062 0.4615125796482129 0.19228014850426206 -0.19660278219702856 0.38701815991274136 0.14461835384637964
-0.07259294390678406 -0.012958568641964815 -0.2204047041274076 -0.0028229183983787226 -0.1696188747882843 -0.004322328761616039 -0.006075580319489445 0.0045776833347768685
-0.2108238935470581 -0.26747343850080363 0.11502933502197266 0.1843715095298262 -0.22184309363365173 0.0625710664695556 -0.21405638224661178 -0.01435183319787079
0.23258942365646362 0.13426196118430317 -0.21699290587756678 0.13201817168864982 0.10290786399402316 -0.0520259487673862 0.21246308059833574 -0.12973305365540114
-0.05817896127700806 -0.16780583645498418 0.022959619872406654 0.016989934144582372 -0.0077518828556671655 -0.16967694950869958 -0.15091268857041834 0.04655489827555431
-0.21920660138130188 0.04516185389899593 -0.29786007102432044 -0.1310746208482761 0.049321286694681235 -0.2103588056798534 0.17202562780600644 -0.3939072731883315
-0.1577846109867096 0.34422610506851103 -0.5695292002927743 0.2877783026867263 -0.335196664032103 -0.1560832941060952 -0.4402641301011927 -0.12266160601285403
00000000: 0000 0000 23a1 a3bf 3410 e2f1 7045 81bf
00000010: da8f 0cc7 8238 d3bf 9147 470e 1a04 d1bf
00000020: 0000 0080 c896 b8bf f598 94a0 b312 99bf
00000030: 8831 cb9f 5658 babf bab2 823d cae4 b8bf
00000040: 0000 0000 99a9 b7bf 98ca 1c93 2df4 a23f
00000050: 307f d331 e9b7 b23f af1d 5d25 b45f b4bf
00000060: 0000 00c0 6f5b c0bf 9c47 e1f4 c570 d3bf
00000070: 8241 b632 ba2c b7bf f87e a106 2339 d0bf
00000080: 0000 0040 694f ca3f fac2 10b6 a92a c3bf
00000090: 234a ccc8 4ae3 cb3f fdf0 ccbe d270 ca3f
000000a0: 7054 3305 9fe0 943f dff6 01a8 33e5 c93f
000000b0: cd41 a0b0 c523 cabf e29a 2f74 0b59 d73f
000000c0: 0000 0000 e3e4 a5bf 1e2b 6510 4c76 c1bf
000000d0: 101a f414 a6e0 dcbf d09b 2fa3 f0ba d03f
000000e0: 6fbc 6227 d136 cf3f a4d6 7c06 c97f d53f
000000f0: b532 1f5b 45cb eebf 5686 5b34 1001 f0bf
00000100: 0000 0000 a5d0 a43f 01c4 53f5 7b86 88bf
00000110: e81c 55a1 5d11 913f b4b2 d9e9 a308 d7bf
00000120: 0000 0000 d89f 7e3f c945 a858 0a0b cfbf
00000130: 9c27 8cbd 8519 b9bf 6792 dd0c 8947 c5bf
00000140: 0000 0080 8cf7 c03f e62c 394c 68e5 dc3f
00000150: f4ca 12b5 c6af d23f 70b6 b813 a231 e43f
00000160: a50e b5db dbce b2bf 3ca1 dfe0 2c67 c23f
00000170: 2803 4873 e8b5 cd3f 0b9c fd59 3b77 de3f
00000180: 0000 0040 52d5 ce3f 7883 5927 1ba1 b13f
00000190: 56ba 3a70 86da d3bf f887 e949 98bb c53f
000001a0: 8da9 89a0 0be3 89bf 6d24 330f 3337 84bf
000001b0: a641 d8cc 1ab9 c13f 2054 9e76 7e80 be3f
000001c0: 0000 0000 f3f1 c8bf a844 cd3f cc01 cc3f
000001d0: f269 170a 5d09 bfbf e9b8 eecf 446d 963f
000001e0: a14f 4c91 ceb1 bfbf 7d08 f7f7 50c4 c1bf
000001f0: b966 3c4c 5417 90bf f7e3 21fd e53a a5bf
00000200: 0000 0000 8e38 a4bf 5347 1126 dfc3 95bf
00000210: 545b 5011 a8d1 d23f f74e 3419 06af 96bf
00000220: 87c5 9968 50ed 9fbf 26eb a3b1 8b8f cd3f
00000230: afaa 482c 4546 933f b656 283d ce20 ae3f
00000240: 0000 0000 ea5a 943f 53a0 5324 bdea d03f
00000250: d92d 75eb a764 d9bf c2f4 9c56 153f c23f
00000260: 469e 0709 7d02 f7bf c198 6e7c 40ee c6bf
00000270: 4d78 4002 e77a babf 6839 740e b9b4 c9bf
00000280: 0000 0000 c2ec a33f f4a7 1aa9 8bf8 be3f
00000290: 159c df12 1418 bebf 3118 b1cc 7c1f c63f
000002a0: 0000 0000 1744 c93f d98f 4735 12a8 cdbf
000002b0: 745d 35ed c001 cdbf a29b 5d2d 1d69 cebf
000002c0: 0000 00c0 6189 c1bf aadf 0036 815a c0bf
000002d0: 560f 97db 7d9e a1bf bc26 f96d 4bb1 b8bf
000002e0: 0000 0000 ff2a c0bf ab91 794b 599a bcbf
000002f0: 534e ab29 71a8 bebf a99f c108 0866 cb3f
00000300: 0000 0000 62b8 b7bf be6c fd2c 5247 c4bf
00000310: 3815 8040 ac6a c33f 5702 ca4c 4e2e c5bf
00000320: 36f9 7c44 48dd ba3f 91e7 22d9 36f2 d23f
00000330: bb62 0b53 f2ad b33f ac3d fd02 b14d c0bf
00000340: 0000 0040 5692 c43f 738e 0bd3 48ce d73f
00000350: 47d8 49ad 431d e2bf b3b1 2ca0 dcbe df3f
00000360: 9f42 4447 1d9f ebbf 49b6 0d59 af73 b7bf
00000370: 5d33 6039 521d d1bf 6d22 149a bb8f e0bf
00000380: 0000 0000 eee8 cbbf b202 08d4 6023 883f
00000390: d669 d1fb 1c8b b23f 1b24 eece 7395 cfbf
000003a0: 8802 1d12 3d3e c03f 28bd f373 2ddb ccbf
000003b0: a7dc 33fd 4149 bf3f e007 cfc6 d64f d23f
000003c0: 0000 0080 ae6c b13f 5521 fab8 1047 d7bf
000003d0: 41e6 6c94 2b30 993f e118 415e 6292 cabf
000003e0: d7c7 f528 801d cf3f 494f 4e52 3906 bd3f
000003f0: 6ae5 60a9 8bdb bbbf d61c 3904 4bf7 dbbf
00000400: 0000 0000 00cb acbf 3caa 65eb 13bd a43f
00000410: 9dc5 2602 9849 3cbf 4762 998f 1c43 c63f
00000420: ac27 a140 3e59 c4bf ac14 4230 4dd4 a2bf
00000430: 1f69 8466 9b7f 933f 9161 514f ea14 b8bf
00000440: 0000 0080 9fd0 c53f 0000 0000 6e00 9c3f
00000450: 0000 00c0 4a93 cdbf e601 9bd6 c208 acbf
00000460: 809d c502 400e c2bf 139c 1a30 7dae 6bbf
00000470: 0000 0000 54c0 9dbf 0000 00c0 ecbd cfbf
00000480: 0000 0000 2953 a7bf 2544 d44e 927d aabf
00000490: b69d 6bcb d3fc b9bf c931 2f65 e1d7 c93f
000004a0: 9ece 4828 8314 b5bf 68d7 a19c e9ff c03f
000004b0: 7a87 d06f 237a a13f 4297 7e65 e891 cebf
000004c0: 0000 0000 0614 ae3f 0000 0080 0085 ca3f
000004d0: 0000 0080 64ee c4bf 0000 0080 1aaf c4bf
000004e0: 4c3e 9f65 f6c3 cb3f 87f8 509a 9527 c63f
000004f0: 0000 0080 44da c1bf 0000 00c0 7e41 c33f
00000500: 0000 0000 1460 a0bf c21b 3107 bf13 d4bf
00000510: ea47 39ba e822 b9bf ed88 befe a9b0 973f
00000520: 33e3 98b8 0848 babf 897a 1c04 fe85 9cbf
00000530: f0e3 1be3 ce00 d3bf 7ac0 a0dc c829 ae3f
00000540: 0000 0000 f647 cb3f 581a 928d 8ea8 aa3f
00000550: ffa3 e8b2 6401 7b3f 8d55 62cf f347 90bf
00000560: 0a02 a5c5 0eb2 cabf b5af b520 533f c6bf
00000570: 6cc7 7734 b01f b5bf 809a 616d a4c5 c8bf
00000580: 0000 0080 c6a2 c7bf cfc3 9e93 59c6 c73f
00000590: a8a7 b370 937d 943f f3bb 1d0f 8d11 d0bf
000005a0: 8be3 8fda 64b4 97bf 5f04 8244 38a5 b53f
000005b0: 1275 abf5 26dd d03f 098f 7fbb bdca a93f
000005c0: 0000 00c0 346b cd3f 0801 7c5c acf5 893f
000005d0: b1ef 2a6e b05e ba3f 48ba a8a5 db66 dd3f
000005e0: 1281 a42f 469b d5bf e56d fc63 cb10 d6bf
000005f0: bc57 909f add1 983f 0e3d 1029 2260 c63f
00000600: 0000 0000 c9cb bfbf 0363 5aca 11ec bcbf
00000610: 32d9 50cc fe33 bfbf e29a c562 bf29 c2bf
00000620: abe0 d699 9e04 c2bf 9198 1756 1f91 a33f
00000630: 6590 7cb1 3eeb a5bf f155 8733 00ca d2bf
00000640: 0000 0000 00d7 633f 8bf2 57d0 2d52 cb3f
00000650: 5d92 de24 039c ce3f e006 120f 6c89 dd3f
00000660: 5277 bfca a29c c83f 655f ebab 472a c9bf
00000670: f421 f2d0 e7c4 d83f 8ff5 15ae da82 c23f
00000680: 0000 0080 7395 b2bf de63 29a4 058a 8abf
00000690: 8a4e 0eaa 3836 ccbf 77f7 68c6 1620 67bf
000006a0: 0000 0040 12b6 c5bf c57a c74a 4ab4 71bf
000006b0: 2f40 6c2c b5e2 78bf 3cd1 6d83 0cc0 723f
000006c0: 0000 0000 47fc cabf 3237 bae9 481e d1bf
000006d0: 0000 0000 9072 bd3f 2954 df51 7c99 c73f
000006e0: 0000 00c0 5a65 ccbf 129f 294c a804 b03f
000006f0: 2ae8 9f14 3366 cbbf 34af c771 7e64 8dbf
00000700: 0000 0080 7dc5 cd3f 5e13 31f6 7e2f c13f
00000710: d7a4 1a6d 6cc6 cbbf 0cb3 f0b0 f8e5 c03f
00000720: 0605 5b76 2b58 ba3f a0a3 ff28 25a3 aabf
00000730: 647d 637f fd31 cb3f 2980 54bb 179b c0bf
00000740: 0000 0000 a2c9 adbf 6977 d361 a97a c5bf
00000750: b61c ec01 ba82 973f 9c77 0c2e cf65 913f
00000760: 626a 8f35 70c0 7fbf 2f30 836a f9b7 c5bf
00000770: 7e0e fb62 1b51 c3bf 38cd 1f2b 0bd6 a73f
00000780: 0000 0040 f60e ccbf dbbb 0b5b 741f a73f
00000790: 3c5b f5af 2310 d3bf 4a81 f09c 0dc7 c0bf
000007a0: fa59 b3c2 a340 a93f 1309 698f 09ed cabf
000007b0: d215 c08e ef04 c63f e806 00da c635 d9bf
000007c0: 0000 0040 4932 c4bf beb7 eced cc07 d63f
000007d0: e6fb 2b4d 9539 e2bf 996c a2af f56a d23f
000007e0: 72c1 6fb5 dc73 d5bf cf9d d191 89fa c3bf
000007f0: 9cbc 189a 492d dcbf c0cf 4c42 c066 bfbf

mu.2.bias f8 [16]
-0.07576206768050754 -0.07024819150719301 0.10543054752889135 -0.32239485355623976 0.2985548716015893 0.17269538467575324 0.19515116984309103 0.19203271554979046
-0.11124777103135562 -0.2705000196313432 -0.020305079146363147 0.30006016655785483 0.27632693193377383 -0.030099849131581115 0.13097549264250877 0.2576352990501227
00000000: 0112 f792 2465 b3bf db64 2015 c9fb b1bf
00000010: 67ce a211 7ffd ba3f 7c0e 1b06 1ea2 d4bf
00000020: 8fc7 65e4 851b d33f b61e ade2 e11a c63f
00000030: a948 20aa b6fa c83f a632 862c 8794 c83f
00000040: 3723 55e2 bb7a bcbf 1493 7850 df4f d1bf
00000050: 605a 81cb daca 94bf f0b0 8c8e 2f34 d33f
00000060: 8136 ea27 57af d13f 37e8 89ae 7ed2 9ebf
00000070: 6d10 bd10 cec3 c03f 0cca edc3 187d d03f
