trained_models/MFoE/checkpoints/checkpoint_10001.pth (torch, 18958 bytes, 14 tensors)

lamb f8 []
7.230562082388408
00000000: 3639 6e77 18ec 1c40

Q_param f8 [16, 4, 4]
0.9593327505191158 -0.05319351093919761 0.04984643764735654 -0.26385684887701555 -0.007222006339857046 0.007202495665267252 -0.0034365217107753592 -2.5779272351800446
-0.008460319630327416 -0.0018358999878414094 -0.0012801474331902499 0.0006479298501779655 -1.1908671172343241 0.06448422077078521 -0.06780235009655512 -0.33756349921716117
0.0008189452216009992 0.002239796197796235 -0.012703735306678844 -2.1257906306944134 -0.004476297455681311 0.014037331642635771 -2.07275382865479 0.004787719401383192
-0.36136786028314805 0.00035978190370697133 -0.005892075503981898 0.002108584828114341 0.005726194649098155 2.2393860955379856 0.004321320938505017 -0.0034723445454989906
-1.249458637549277 0.048425214758138324 0.01805512166871617 -0.03355941645439064 -0.002976236537220754 -0.007093233435918513 -0.006094625181631192 3.1831386145509972
0.00523133656645577 -0.004829803883391073 3.1000667231018073 0.0036180530922688995 -0.0008646885844600353 3.142809993707864 -0.005414027203869425 0.0007721705394637006
0.006243008351798155 0.005691082338515547 0.0065695323523025356 2.706847785173381 0.17454900040141988 0.0017117929558335084 -0.0023958575176756766 -0.004609810941006779
0.5136492518693018 0.01202777234499861 0.0010400622732888172 -0.002186017257237568 -0.0031335109420107792 0.0036008353148515074 0.0061870066236785985 3.0962411057758223
0.28536461960141024 -0.01460877491215022 -0.0012002448541982244 -0.004898463795905492 -0.34401504594308063 0.017116751932013025 0.006128183996669662 0.002946964770770621
-0.005383937184626924 0.0034488303667368774 -0.0027103653704911882 3.880481778537619 0.0033578903615656655 -0.002812919289209329 -0.0039114857277433935 -3.4784274284836263
0.0045152320051110315 2.6908170537155875 -0.0014260643038744765 0.0021180208710494005 0.007066782208941983 0.0044617313656043125 -2.3193960988411315 0.009240020198385466
0.004652128038382711 0.009690594992248482 -0.007622854351027109 1.913253088318536 1.4670552733108106 -0.00731677542838524 0.01790409985887799 0.02223367157074205
-0.0045566899126246825 1.8724336276321 -0.00994050543757517 -0.005028674273876673 -0.6865372796039217 -0.00018188846746693826 -0.014353083450464604 -0.0059740032700607406
-0.012579223114299053 -0.024711987454597614 0.024766219318215196 1.3005420674108115 -0.0042176187804564705 -0.009766319421796085 1.902950644922225 0.005240579773009136
-0.001797229493914703 -2.1920893403227493 -0.002074700350131846 -0.0027188274332020975 0.06141866497369251 -0.045892162033798194 0.04084084886284865 -1.9414855043772274
-0.6437728161597657 -0.004753067647751149 -0.0006230146004785882 -0.00038881158991381206 0.00539784414339597 0.005062238086247131 -2.4087764118156305 -0.004095771239146133
-0.5378448125673928 -0.06707060864838801 0.5557305513525509 -0.30052901255136594 -0.10537039841173398 -0.19157299635193242 0.13138256392721168 -1.4034923139426287
-0.004376595786733757 -2.5936596991625107 0.006138280269187813 0.0017343089583528885 0.018608960873021944 0.007141306517268923 -2.45255738041723 -0.007156079421179852
-0.002212314646243194 2.361137356497535 -0.006238615162581084 -0.002279250717147531 0.5090165028716719 -0.24650804333963477 -0.2769952204020145 0.2002703574781658
0.005820571421824002 -0.020950716829450995 2.3766825549339354 0.004401068541228944 -0.22068068775103292 -0.1837541150229479 0.21344396446630123 1.3523227057008333
0.001652511479910921 -0.005798182942426489 0.0015277508498018288 4.13729676902169 -0.0030336225429245483 0.000650457789465737 -2.168172244308125 0.0021100562064178437
0.002365293438858857 -0.005087936691098607 -0.004974576716111577 3.508542747234271 -0.0025828329714907582 -1.9720893798621473 -0.0017717016978799367 -0.003453817145284547
-0.16618394469963405 -0.16324430297083578 0.1714693181168588 -1.870353766739143 0.47595342665136803 -0.041448638728407254 0.07762495237188828 0.15756898420775575
-0.24119804437482079 -0.040046399202138865 0.08198274717076709 0.17913659175276192 0.17309845740846663 -0.18638342949424092 0.14658221966264773 -2.003054417880625
-0.8906553875136436 -0.11912774498382495 0.0807089910203961 0.32300685467475815 0.023939488299863258 -0.0066769143810526295 1.8388269582933645 -0.00847469512940513
-0.01776522388057229 -2.374433042464668 -0.004767584688498164 0.008448630104108255 -0.9850509992182923 0.13035240215064914 0.025305263235203844 -0.3021299900701681
0.12183469675815027 -0.13453135307225417 1.4561676269075965 0.12987862458823443 -0.12498575961478373 0.1278944667018356 0.11925803760441175 1.758126453332216
-0.033710580270929894 -0.35670729931024375 -0.37091598200220305 0.26688254848646337 0.08365533313825892 1.3745248325207031 -0.15729702369248996 0.10328497439879147
-1.2770334860724555 -0.01334670940635688 -0.028483964773213973 0.012171102841221073 0.0017416493157995803 -2.5275478114991508 -0.005787583130919598 -0.0036727587547466718
0.005938905429524778 0.0007355785359329713 2.904292063489197 -0.002091346937348808 -0.0018038725653279086 0.0021604992581766495 0.0017814662110722814 -3.229651820100324
-0.011887814944434126 -0.016481216874598834 3.0754551684679483 -0.003501107232137314 0.15707207926088426 0.07718506966854959 0.08479555866658102 -0.13808939973465206
1.916981679154017e-05 3.4307392519770747 0.0066301184063018645 -0.0002769216684425131 -0.07384853878376742 -0.04514342429022153 -0.07522050578480456 0.14433808830049896
00000000: 36c3 ae98 dab2 ee3f 58c1 af0b 2e3c abbf
00000010: b2f5 08e7 7885 a93f 4227 30d6 07e3 d0bf
00000020: 8db7 a890 d294 7dbf 357b 4f35 5d80 7d3f
00000030: 0e45 838b e826 6cbf 2787 7450 989f 04c0
00000040: ecf8 01e1 a453 81bf 4730 049a 5214 5ebf
00000050: a0db 03d7 53f9 54bf a77d 20c2 3a3b 453f
00000060: 9773 a6ad ca0d f3bf 918d 51b3 0982 b03f
00000070: 99b3 41ac 7e5b b1bf 7f81 5def a39a d5bf
00000080: deb8 d478 cfd5 4a3f f569 6a6d 3159 623f
00000090: 210e 6f7d 6a04 8abf 46ce a784 9e01 01c0
000000a0: da7d def2 bc55 72bf 4435 a0c2 9abf 8c3f
000000b0: 51d9 95f5 ff94 00c0 d697 05a4 499c 733f
000000c0: ac76 6fa9 a620 d7bf d2d5 9682 2394 373f
000000d0: b4cb 85f9 4922 78bf a83d 15dc 0546 613f
000000e0: 6179 f9ab 5974 773f 4b9f db41 43ea 0140
000000f0: 84cf b3c1 3bb3 713f 7576 6dc8 0872 6cbf
00000100: 6ca9 1f57 c8fd f3bf 003f 6093 30cb a83f
00000110: c7a7 5eb4 0a7d 923f 9ff5 4928 b32e a1bf
00000120: b0f3 f5d2 9e61 68bf 8f26 155a cb0d 7dbf
00000130: 143d 627d adf6 78bf de0c c160 1177 0940
00000140: db0b 7a37 746d 753f 9ca8 9a9b 6ac8 73bf
00000150: 071f 39c8 efcc 0840 c689 9b76 9ba3 6d3f
00000160: e56d 8298 8855 4cbf 5023 e490 7924 0940
00000170: 1200 7cdc 042d 76bf 9319 629b 6f4d 493f
00000180: 11ad 31cb 4492 793f 6e41 5d48 884f 773f
00000190: 1e84 a669 a7e8 7a3f c28e c4cf 9fa7 0540
000001a0: f904 2324 9f57 c63f ea2c d2b0 c70b 5c3f
000001b0: f5b9 e535 7aa0 63bf 91c6 b7b3 bce1 72bf
000001c0: b397 4c8e d06f e03f 738c ec46 04a2 883f
000001d0: 83e6 c55c 560a 513f 2b41 1b14 69e8 61bf
000001e0: 3c22 90e0 72ab 69bf 8b57 4cbd 7f7f 6d3f
000001f0: bac9 bdf1 8b57 793f 4bb4 8e0e 1ac5 0840
00000200: 0ae8 27f7 6943 d23f 97c5 db93 34eb 8dbf
00000210: eaa1 5719 31aa 53bf d767 dd5c 6910 74bf
00000220: f813 eaae 5704 d6bf c505 0cc7 0d87 913f
00000230: 54d3 97dd dd19 793f 1979 03aa 3b24 683f
00000240: f967 1ba2 770d 76bf 8188 4eb4 b840 6c3f
00000250: 060c 0c54 0c34 66bf 0a58 dc07 3a0b 0f40
00000260: 39d4 2aa9 0182 6b3f d464 4f8b 1e0b 67bf
00000270: 298a 7874 7d05 70bf bec5 76c2 d1d3 0bc0
00000280: 619d bb5c 907e 723f f8d1 6917 cb86 0540
00000290: d53d 04e3 585d 57bf 07ea f2cb cf59 613f
000002a0: 9113 9be7 0ef2 7c3f d6ea c7e4 7646 723f
000002b0: eff0 b78a 1f8e 02c0 5214 8884 6eec 823f
000002c0: 37ac 811c 1c0e 733f 545c 90a4 a9d8 833f
000002d0: 41c1 3c62 2439 7fbf 29c9 3445 af9c fe3f
000002e0: 58b5 44f3 0e79 f73f 5e5d d5f2 31f8 7dbf
000002f0: c4cb 6ecd 7355 923f f9bb 1071 6cc4 963f
00000300: 6b9b 7122 09aa 72bf a8c4 a9f6 7cf5 fd3f
00000310: f6ac 140e b05b 84bf 96ce c678 f298 74bf
00000320: e046 6c07 1df8 e5bf 0063 e009 2ad7 27bf
00000330: 03cd 2140 2665 8dbf addb bc4a 3278 78bf
00000340: c67b 14bf 22c3 89bf 8c23 bf67 194e 99bf
00000350: 7cb6 11d8 505c 993f 69a0 e932 05cf f43f
00000360: 9136 aa6b 7e46 71bf 0bb7 2634 5d00 84bf
00000370: 327d 1d60 7c72 fe3f 4e61 cb6b 2577 753f
00000380: 16d6 9579 2072 5dbf 79c5 d422 6689 01c0
00000390: 70de e344 f6fe 60bf 4c1b 175d cb45 66bf
000003a0: 5e1b da6a 4472 af3f ffe1 276e 2d7f a7bf
000003b0: 7ee3 697c 17e9 a43f 0555 af1a 5310 ffbf
000003c0: 6fb8 ee72 c999 e4bf d6ee a4e1 f377 73bf
000003d0: fc0d c0aa 396a 44bf c9d2 1f10 2d7b 39bf
000003e0: 1b62 09c1 0c1c 763f 5063 6630 24bc 743f
000003f0: b1fe 4091 2c45 03c0 526d 6238 bac6 70bf
00000400: 419b 0953 0636 e1bf 8aea aa16 8a2b b1bf
00000410: e94f ee6f 8bc8 e13f 0b11 1a0a de3b d3bf
00000420: 5e17 25ef 8df9 babf 626b 10c5 7685 c8bf
00000430: 177f aad3 24d1 c03f a222 495b b474 f6bf
00000440: 6e6d 597c 31ed 71bf 76d9 06a8 d0bf 04c0
00000450: e751 2810 7424 793f 875d 7710 386a 5c3f
00000460: 71dd 7239 3a0e 933f d1fe 13df 3340 7d3f
00000470: baa4 6367 d69e 03c0 4203 4e71 b14f 7dbf
00000480: 47fe ba61 8f1f 62bf 9c2a 7cfb 9be3 0240
00000490: 19a4 8781 a98d 79bf 1ddb 4369 efab 62bf
000004a0: eda8 1efa dc49 e03f 8a1e 2c58 938d cfbf
000004b0: 0499 3129 4aba d1bf bc0c dd85 75a2 c93f
000004c0: ef89 69be 4fd7 773f 12e5 70ce 1a74 95bf
000004d0: df51 b324 7203 0340 af86 3bd7 da06 723f
000004e0: c5ee 5fc8 433f ccbf bbb5 433d 4185 c7bf
000004f0: 1da7 74bf 2152 cb3f 16f9 2922 1da3 f53f
00000500: 2a81 ccb0 2213 5b3f e7b9 d2e1 d5bf 77bf
00000510: e6e9 ecfb d907 593f b22d 3386 978c 1040
00000520: 7753 87b3 f7d9 68bf 0a91 7277 6f50 453f
00000530: c22f 8bb0 6a58 01c0 68f4 c6cc 1b49 613f
00000540: 4115 e43e 6160 633f 5c04 149b 16d7 74bf
00000550: 0b0e eac4 3860 74bf dce9 1fdc 7e11 0c40
00000560: 053c 98e4 9728 65bf dfbf f497 ad8d ffbf
00000570: 083f 7136 0e07 5dbf a27a eef5 2d4b 6cbf
00000580: 3877 cdf7 8345 c5bf a34f 4277 30e5 c4bf
00000590: 7327 cae4 b4f2 c53f 4085 4112 f8ec fdbf
000005a0: afc0 785c 0576 de3f a7bd 9a87 c138 a5bf
000005b0: 0973 ca97 3adf b33f e3a3 0471 382b c43f
000005c0: 3a79 39d8 93df cebf 579f ca2d f680 a4bf
000005d0: 4447 ef41 d2fc b43f 7a29 8ca5 f2ed c63f
000005e0: 5059 c71a 1728 c63f d4d7 1887 69db c7bf
000005f0: 0426 d0c7 34c3 c23f ac3e 0765 4106 00c0
00000600: e412 2cba 3f80 ecbf 1873 c0e8 277f bebf
00000610: 89fe ec2c 58a9 b43f f38f 4df1 24ac d43f
00000620: 21d4 52dd 9783 983f 541d 7a8e 4059 7bbf
00000630: 73f8 0dd1 d56b fd3f c019 6553 2e5b 81bf
00000640: b3ee 4afe 0b31 92bf 946b 3fc0 d6fe 02c0
00000650: 9d91 16c5 2c87 73bf 8cf6 f1ef 834d 813f
00000660: 281c 51ac 8985 efbf 0496 1834 63af c03f
00000670: 1628 0c78 9fe9 993f d37f 9f06 1956 d3bf
00000680: 2f26 1806 8f30 bf3f e4b0 ddc8 5238 c1bf
00000690: 2ffe f06c 764c f73f a928 87de dc9f c03f
000006a0: e6de 0216 11ff bfbf 7970 e98b d85e c03f
000006b0: 56cc 4bdb b187 be3f 9cb5 3434 4921 fc3f
000006c0: 62ed 955f 8342 a1bf f70b 32da 4ad4 d6bf
000006d0: 0dd8 1063 16bd d7bf f3d6 678a 9a14 d13f
000006e0: 99fd f697 6f6a b53f f475 33c0 0dfe f53f
000006f0: 8f39 4212 4f22 c4bf 8804 3653 e270 ba3f
00000700: c43f 29aa ba6e f4bf 92b1 4603 8555 8bbf
00000710: 323e a584 e62a 9dbf 9b3d 46c5 29ed 883f
00000720: 47b4 8eb6 0189 5c3f c8b8 abfc 6a38 04c0
00000730: 45a9 5284 b8b4 77bf ad85 9b57 5516 6ebf
00000740: 6864 80c9 6453 783f b74b b3e0 7a1a 483f
00000750: 66bf 357a fd3b 0740 0a85 6a56 df21 61bf
00000760: 85aa 266b fd8d 5dbf 2f55 0535 e5b2 613f
00000770: 0619 64c7 0230 5d3f d461 86b1 53d6 09c0
00000780: 7909 4283 a358 88bf e913 e6bd 73e0 90bf
00000790: 7312 473d 889a 0840 836b faa1 5aae 6cbf
000007a0: db25 c519 f01a c43f 5b45 f795 66c2 b33f
000007b0: f5aa 5167 29b5 b53f d46d e4d7 e9ac c1bf
000007c0: 1824 6fc7 db19 f43e a4c2 c26b 2772 0b40
000007d0: 582b 94db 2e28 7b3f 4a88 6f82 f925 32bf
000007e0: e904 efe2 bce7 b2bf bc72 e9f5 091d a7bf
000007f0: a195 55ac a641 b3bf c7ad 68a4 ab79 c23f

taus f8 [1, 1, 16, 1, 1]
-0.003809085947804026 1.5150734839745041 3.372650638071842 -0.007853982400854938 -0.034469674820951354 1.273339422767581 1.4554911906881796 1.4866052945410313
2.6253309873287773 2.217318740323872 2.166163395378775 2.618677034584183 1.363753414616371 1.5531754182827795 1.4473595674257476 1.9367091663530254
00000000: cfe0 5972 3b34 6fbf 0051 8bb1 bd3d f83f
00000010: 17d1 fa41 30fb 0a40 5eb4 70ac bf15 80bf
00000020: 5696 1e5c 02a6 a1bf 90e8 9728 995f f43f
00000030: 05f3 7921 b149 f73f abd3 21a2 22c9 f73f
00000040: 1905 5e88 ad00 0540 d8fd 939b 11bd 0140
00000050: a28d 6779 4d54 0140 459a f2f1 0cf3 0440
00000060: ca5e b919 efd1 f53f 4c9c a777 ced9 f83f
00000070: 3757 7a81 6228 f73f 3d98 35c0 c2fc fe3f

eps_omega f8 []
-8.47489014674764
00000000: 90f2 22cd 24f3 20c0

l_op.eps_theta f8 []
-8.416462090449599
00000000: 7802 e584 3ad5 20c0

l_op.conv_layers.0.conv_param.parametrizations.weight.original f8 [4, 1, 5]
0.6055878316276827 0.713592746042083 -0.4498724846498245 0.2918243558586802 -0.26394150825079626 0.8850910269393164 -1.1108164191601857 0.9096674157717257
0.15815735515125207 -0.8493227375083056 0.48864645100662957 0.10824220152277327 0.9484226384848247 -0.36625727044508544 -0.05511351025071701 0.01860630832981345
0.5926543051761779 0.13540858649565743 -0.5670578952586294 0.059001804064220106
00000000: 5549 76bb f960 e33f 0c3c 5d74 c0d5 e63f
00000010: 933d 3cf6 b5ca dcbf 0db7 2510 40ad d23f
00000020: 139f 7fec 6ae4 d0bf 56ff d56a aa52 ec3f
00000030: f971 0270 e7c5 f1bf a43e 1fd7 fe1b ed3f
00000040: d08c ff0d 803e c43f 9d1d abe0 a62d ebbf
00000050: f150 98c3 fb45 df3f bd5c 96cb c2b5 bb3f
00000060: de81 e26e 7a59 ee3f b7f7 9e55 c270 d7bf
00000070: 246e 3088 d637 acbf 1a76 1a37 880d 933f
00000080: d616 5229 06f7 e23f 0358 4c8d 1155 c13f
00000090: 8a61 6299 5625 e2bf 16be b805 7c35 ae3f

l_op.conv_layers.1.conv_param.weight f8 [8, 4, 5]
-0.5049154500603853 0.7813182207382505 -1.6939871199913399 1.393178540791616 -0.989066329360792 -1.6994339411097905 -0.34519719997961923 -0.004731762647794239
0.6060574795147472 0.8897186903360046 -0.0985781153524575 -1.0475564699442688 0.8561686155431751 -0.4479599730643301 0.1726200240219519 0.16201539736575626
-0.8031535707574863 0.8584025285838132 -0.25078807493237265 -0.3640298916729426 0.3144279137923773 0.04492700869136825 -1.241918782763405 1.371534275142576
0.4571560076816185 -0.2869166152273273 0.5174169542094094 -0.6294859149666547 0.397907147871183 -0.28912141995577484 0.02687838607619105 -0.055445950761384775
-0.18032847469851068 -0.12075587167543037 0.17906424964270526 0.36188719340485237 -0.45591452721163744 0.299875001356714 0.14738231885349276 -0.03877172176338488
0.2606896085777514 0.10090670673473762 -0.6974716063613904 1.0642383290099222 0.500982514043437 0.914669037548004 0.8017793882045404 -1.1990464743505214
-0.21150751639362006 -0.3991711820804452 0.16052035342221346 0.2288948497387471 0.03318764992920009 -0.6713962449672682 -0.030333026759290737 -0.27520551904005613
-0.6334526358756564 0.48301115502721237 0.10197256535485061 0.4485482866175306 0.5199875319757966 -0.4738282836795565 -0.04604251059895928 0.2074661205504844
0.8015399251845894 1.2391975623796845 0.5386880009213698 -0.43146083585900413 -0.3459450359689085 0.017704078022984793 0.7676155458414741 0.24341592362994355
-0.26118201729523377 0.027835269613775485 -0.3166319453606416 0.23506104262144611 0.39248745943760444 -0.23718261564714407 0.12101465491778626 -0.11213802894656417
-0.055977216127042914 0.004129145397040056 0.5210534065292862 -0.7645871536088388 0.11434945428491824 0.8302666633918531 -0.005922536253925101 0.38224041492528477
-0.7312907157130087 -0.37722546111423017 0.5188443790142862 0.12218096901982199 0.10806306591667374 -0.1466501129116557 -0.6185365736306192 0.01963041460605045
0.5095385359826027 -0.44511442566767995 0.012754280153170245 -0.30903463404344494 -0.41931902507311414 -0.11755371443423639 0.13610835567017363 -0.5298654413320997
-0.6071756465537973 -0.9259337647431408 -0.23206819157234745 0.05225889388180625 0.3027550614457032 0.1620112765885693 -0.2294650464432706 -0.09594050212697895
-0.16886071161044908 0.11558835629543471 -0.3068370606201042 -0.2033251554373413 -0.23686249925075864 -0.20540185022108082 -0.13949226896669442 -0.33831846919217495
0.1619483400802965 -0.7832125781034514 -0.02540255113833971 -0.6072649142854742 0.8681595641208749 0.1515622660897444 0.07372513293157401 0.1607687118216144
0.10553028808780686 0.07341268762181419 0.27060782512537856 0.03678273533710623 -0.08189633462689944 0.23947676378251673 0.5188547491076916 -0.3455449415170526
-0.12085015888178095 -0.36742442186062935 0.38260530257169173 0.12007975968314973 -0.5322327258370817 0.8884807020259284 -0.3528880212963728 -0.5852296566191174
1.101846907222587 0.6407649374974533 -1.182882439053646 1.4802941888322656 -0.6050466101101 -0.12361077801037887 0.02335645800718869 -1.0202012312859696
1.4176479499283805 -0.24009241275207607 -0.45013556142781896 -0.5728956782686699 -0.3295733860506533 -0.13018631132972636 0.8471708869360567 -0.3995653035548435
00000000: ab24 2872 4428 e0bf c8de ba11 8f00 e93f
00000010: 1a54 033d 921a fbbf 1d06 e394 754a f63f
00000020: 5ebd 456e 6ea6 efbf 8a76 eca4 e130 fbbf
00000030: bf53 25ff b517 d6bf c403 32dd 9c61 73bf
00000040: 8b62 c0a7 d264 e33f 4842 b454 9378 ec3f
00000050: 5645 8a55 6a3c b9bf 41fb b192 cac2 f0bf
00000060: 3ad3 73b9 bb65 eb3f 1a9d 8e4e 60ab dcbf
00000070: e58d e7b6 6918 c63f f632 91a8 ebbc c43f
00000080: 7535 021e 6fb3 e9bf 2147 6294 0878 eb3f
00000090: f6ec 036d e90c d0bf 091c e007 444c d7bf
000000a0: 6304 ac41 961f d43f a3b4 1242 ac00 a73f
000000b0: 7b1c c43a e6de f3bf 7149 91ec cdf1 f53f
000000c0: 0366 8a45 0b42 dd3f 0d25 c581 d75c d2bf
000000d0: 0236 1700 ae8e e03f a461 42a5 bf24 e4bf
000000e0: 32e3 bc8a 4f77 d93f e11e d220 f780 d2bf
000000f0: 967f aaf4 0186 9b3f eb79 6e62 6963 acbf
00000100: b50f afe2 0015 c7bf ba5c a557 dbe9 bebf
00000110: c791 0ccc 93eb c63f dff6 20e7 2829 d73f
00000120: 594c 0920 b42d ddbf 41c3 edea 2631 d33f
00000130: ad00 be7f 6cdd c23f 9679 f719 e3d9 a3bf
00000140: 27e7 cf77 23af d03f 446d 5f9d 05d5 b93f
00000150: 86be 66f9 af51 e6bf f5f4 23c5 1e07 f13f
00000160: cae6 357b 0c08 e03f d2d6 5d00 f844 ed3f
00000170: a140 5e3f 2da8 e93f 7383 1b5b 4b2f f3bf
00000180: 7367 e2a4 ad12 cbbf 96a2 2249 058c d9bf
00000190: e737 2552 ee8b c43f 79e5 ec2a 6d4c cd3f
000001a0: 006e 27be f8fd a03f f754 59fa 137c e5bf
000001b0: 43ec adf7 9e0f 9fbf f32a fd9b f79c d1bf
000001c0: 81d4 5476 3e45 e4bf ea7b 9c9e a7e9 de3f
000001d0: 6cce 49c1 df1a ba3f 85be 6cdf 03b5 dc3f
000001e0: db3d 85e4 bca3 e03f 51b4 94dd 3353 debf
000001f0: 641c 7f4a e292 a7bf e06a 65f5 3f8e ca3f
00000200: 2865 a30e 37a6 e93f 3642 bbd2 c0d3 f33f
00000210: 8d8e 569e ee3c e13f 573b e1e8 0d9d dbbf
00000220: e5cc eca5 f623 d6bf 204d 7590 0421 923f
00000230: 4d4a 297a 4e90 e83f 977a a8c3 4028 cf3f
00000240: 8586 a5c7 34b7 d0bf 2481 aa52 d980 9c3f
00000250: 1357 8ca2 b243 d4bf 08b7 4ff1 7a16 ce3f
00000260: 10fa 97b8 831e d93f 2d2e b1fc ff5b cebf
00000270: f667 3501 d1fa be3f 05a1 f6ee 13b5 bcbf
00000280: 866d 2cb1 0ba9 acbf 322c 0d07 b9e9 703f
00000290: da67 9031 78ac e03f 5522 767a 7f77 e8bf
000002a0: 961b 787e 0146 bd3f fd43 c764 8b91 ea3f
000002b0: 57d9 51b8 3a42 78bf 8111 5480 a076 d83f
000002c0: c362 7bc9 bb66 e7bf 9a10 ad42 7624 d8bf
000002d0: 9f8d f286 5f9a e03f c73b 2282 4047 bf3f
000002e0: d381 0466 05aa bb3f ae83 744f 6ec5 c2bf
000002f0: f0f2 6336 0dcb e3bf 4aaa f5d2 fe19 943f
00000300: 9b1a 83c2 234e e03f cf1c 4e37 c17c dcbf
00000310: 3796 2281 ea1e 8a3f 3111 a333 39c7 d3bf
00000320: 72e5 d176 1fd6 dabf cbb3 040f 0018 bebf
00000330: e769 28a4 ff6b c13f c7a9 b95e a8f4 e0bf
00000340: f309 1c9f fb6d e3bf b3af bad8 3fa1 edbf
00000350: 475f 9f16 69b4 cdbf 1d84 4b80 adc1 aa3f
00000360: a2e5 e6c3 5660 d33f 98fb 4317 c9bc c43f
00000370: 9844 0653 1c5f cdbf 0b48 ff86 8e8f b8bf
00000380: fa1b f950 3a9d c5bf 7e58 16d2 3297 bd3f
00000390: 7e1a 24e9 37a3 d3bf 145c 8706 8f06 cabf
000003a0: 8825 f7a7 8251 cebf 3064 9e9a 9b4a cabf
000003b0: 70de a0f6 e1da c1bf 0f0b 3482 02a7 d5bf
000003c0: 6da7 2424 b9ba c43f 3aa5 18d3 1310 e9bf
000003d0: ac1d 7f59 2003 9abf cca8 5bd4 b66e e3bf
000003e0: 117b f390 f6c7 eb3f 87e0 1470 6466 c33f
000003f0: d098 d57a a6df b23f 8a37 bfb3 1194 c43f
00000400: 4118 1370 0804 bb3f d078 7284 2ccb b23f
00000410: cd21 bd7b a351 d13f 661c a9ca 2fd5 a23f
00000420: 9c82 e27e 28f7 b4bf 9585 4cb2 2ca7 ce3f
00000430: 9856 5946 759a e03f 584b c787 681d d6bf
00000440: 5f18 1d38 09f0 bebf b928 e9b8 e183 d7bf
00000450: 1b95 74f3 9a7c d83f bd2b c010 8cbd be3f
00000460: 3199 eaec 0c08 e1bf f082 ca14 6f6e ec3f
00000470: 818e a7a3 b795 d6bf 6982 7a8b 33ba e2bf
00000480: 2084 fb38 2aa1 f13f 9433 5f78 2581 e43f
00000490: 50f8 eb22 16ed f2bf 16e5 97f5 48af f73f
000004a0: 3850 5fb5 8a5c e3bf 76d9 fcb8 f4a4 bfbf
000004b0: 6843 2a5d c1ea 973f 0e65 bb86 be52 f0bf
000004c0: 02f1 e29d afae f63f e9d9 6422 59bb cebf
000004d0: 5a57 c662 05cf dcbf abe0 4551 2955 e2bf
000004e0: eb0c aef8 ba17 d5bf 7826 c6ee f1a9 c0bf
000004f0: 0b70 b01e 061c eb3f 7199 d859 7a92 d9bf

l_op.conv_layers.2.conv_param.weight f8 [16, 8, 5]
-0.6860867482964889 0.001823857956067507 -0.1976708705483391 0.02862876118411526 0.34173274215264643 0.19287582008866438 0.1906353893018582 -0.049877186139647
0.36500153674872926 -0.07097340797988044 0.14353174317107992 0.33635013622377585 0.21598549797269936 0.6845019788836337 0.11804121666406177 0.3805028187605546
0.04562726210626382 0.0339983171974244 0.044930595270519645 0.12479354674610689 0.16604215127384284 0.0757625035245814 0.16224382053312672 -0.034532139913701486
0.18809124991874016 -0.43199678823663956 -0.192678033281978 -0.1275935332114113 -0.11809946267963078 0.08693103721813357 0.04889797395591153 0.16904033529537726
0.11356697714017205 -0.14038943382723468 -0.35601416563112176 -0.47654375398255705 -0.07620002552843246 -0.30402078453269593 -0.12228519680931875 0.14695739111051115
-0.7700493017521124 0.4516941633591925 -0.6386025115491946 0.3763682258064459 -0.4905563178674485 0.06472062409364954 0.26765336255284156 -0.3448545131548309
-0.23631542778695164 -0.14371939934779146 -0.07775537998706672 0.3040134906235985 -0.1271661060750679 -0.07838953981328764 -0.3718560997204881 0.327611474291424
0.06237916311720591 -0.1025695973593603 -0.4244542523311894 -0.356349719602519 0.2522768430809393 -0.037193038187791794 0.045996194063240944 -0.2830925218028222
-0.033761138556101064 -0.0009997358774781633 -0.3436060363782757 0.09926387454634848 -0.1415482218372572 0.34297877688449047 0.19852876221759982 -0.16693766671673205
-0.08978575472071885 -0.15429501174623414 0.169551297435723 -1.0132846188705296 1.1405718106406895 -0.7104013672840465 0.41290732013337045 -0.0005180065030267236
0.35784698420319644 -0.43032511265590845 0.16648664325491044 -0.22171010656764675 0.9703628830233579 -0.4121700534324163 0.11256577991195037 -0.08591194976280596
0.06084434815741077 0.21847714238604285 0.023840757064522343 -0.08060856591462598 -0.20223686739971675 -0.20053109463868882 0.42183760567812983 -0.6814029447800717
-0.07573960614081551 -0.05367139211143784 0.34538045755129376 -0.007781407265767627 0.36876486988366214 -0.2754266844300432 0.026265493936811955 0.0031839432381410167
-0.14585655431344652 0.6519305451804355 0.29699880377048227 -0.022303943797259404 0.0530315251154243 -0.2976755926456695 0.31237009734928783 0.22142064058013963
-0.07154577549601639 -0.11458648667280742 -0.3172437725301557 1.3742506746695957 -2.7674891632165175 1.1703756236851708 -0.3666303818389436 0.026265437802631707
-0.7006084115607427 -0.4895489486515457 -0.7172534799046604 0.2926819664906831 -0.38512074307585664 0.2706359987714518 0.3124474095551539 -0.07178347402825787
0.3294515240369902 -0.3021608958783841 0.05748778311875488 0.48279707842054853 0.49504168341355165 1.0149430392685026 0.2398632090568423 0.7360288021064059
0.8142386106326845 0.5595139462421488 -0.10529567685466482 0.18392906960507707 0.29247316477889673 0.2693968354255867 0.45227979278149905 0.011158089779591832
0.14584998870409202 -0.6092624006881723 -0.3734103712293068 -0.2632867832814997 -0.07142546692621811 0.22202924839633637 0.06761756381335732 0.19391106015744747
0.3045553859083267 -0.07811343522287181 -0.03281385382644149 0.07398855180736655 -0.6776828529941806 0.10796973208980574 -0.3591410789117584 0.010049954678682124
-0.6909652187219105 -0.6810292728180991 -0.35546019016844027 0.3866993497326753 -0.19300009661059575 -0.18192226055468633 0.7066350142643479 0.6693021610119391
0.6930952773942646 -0.41582040884546423 -0.1840273771615844 0.5271590610442549 0.6624633492461407 0.5459059327934795 -0.49754594725730633 0.6426833712227377
0.3896450839306892 0.4500835574648945 0.3564829188356198 0.2625110759917323 0.4337539369678168 0.00999027804552451 0.1295524592331105 0.08819358487126844
0.4985159437057946 -0.6602567946738904 -0.4066496439129485 -0.3055200249637657 -0.17068240370020432 0.22161427369471323 -0.33823351395228235 0.15788911149976692
0.2910723452485939 0.2139337171932408 -0.030884628321298024 0.4062671965596776 -0.10020616517668263 -0.48108095082195745 -1.2286955889791429 -0.7501830200975298
0.3359173470274217 -0.47210791158452586 0.244158235542811 -0.14037377303202045 0.07412136586745378 0.10971065947757386 -0.23438939555116653 0.36190915220450254
-0.04645390478483379 -0.36482276406295955 0.10952580195429569 -0.03774646120301742 0.5651474409546184 -0.4207182906601163 -0.5056134605153125 -0.23882985311710678
-0.06254153330901344 0.04262961481095099 0.09960227528627678 0.004886689611778836 -0.04702987696699629 0.13936306997517986 -0.1336569399208963 0.05815539060222141
0.05926036475451451 -0.008419534936324066 0.2312893829043302 -0.06332961018303325 0.010043536491036148 -0.0265086348141711 -0.10732516079882097 -0.09925481233664413
0.25395230338830793 0.04552324869565765 -0.22165004205503436 0.8967284147746494 -1.0782332342612997 1.0027463739506444 -1.0034581947757877 -0.11552286146421402
-0.4251368199593822 0.38451051852166024 -0.42104265041678424 0.29901805869651854 -0.12222762798369509 0.02549289257126254 0.24567788912608998 -0.45631854827077734
0.5898641659805036 0.066541022983937 -0.03072957456603269 0.03845133981312615 -0.3366856045264464 0.6123301171313379 -0.2184199988005215 0.136345834864729
00000000: 7de0 4432 6cf4 e5bf 5be9 8691 d0e1 5d3f
00000010: 6c40 3072 474d c9bf 1a07 0ba4 db50 9d3f
00000020: 3127 e101 f3de d53f be28 bca5 27b0 c83f
00000030: b07f 418d bd66 c83f 6394 92a6 8089 a9bf
00000040: 8ed5 d467 2f5c d73f bcc4 2832 502b b2bf
00000050: cac7 6d87 3f5f c23f 5285 c5b8 c286 d53f
00000060: 7ffc 19ad 69a5 cb3f 9847 abb1 70e7 e53f
00000070: 49f6 26fd f237 be3f 8431 a77e 285a d83f
00000080: 36d7 1add 745c a73f 0fc5 f638 3a68 a13f
00000090: dbaa 8d9a 2401 a73f 99c0 064a 78f2 bf3f
000000a0: 1144 bd84 de40 c53f 8bb2 e6e2 2b65 b33f
000000b0: d97c 95cf 67c4 c43f 7b34 2e57 32ae a1bf
000000c0: c849 88c3 5f13 c83f 9404 5ddb d5a5 dbbf
000000d0: e145 cd7d aca9 c8bf 277c 2922 fc54 c0bf
000000e0: 105a e231 c43b bebf 51f7 dbc9 1c41 b63f
000000f0: ec6c f6bd 2709 a93f e635 e61b 1da3 c53f
00000100: 88fd b8b4 b912 bd3f 88f7 7eed 47f8 c1bf
00000110: e818 93a3 efc8 d6bf 35f6 9d5f b17f debf
00000120: eb56 9949 d881 b3bf fdd1 b797 1375 d3bf
00000130: fbb8 1429 154e bfbf f2d0 5cf2 7fcf c23f
00000140: 98a7 ea6e 3ea4 e8bf fdfe daa2 8ee8 dc3f
00000150: 7fe9 c788 6e6f e4bf 12e7 45c1 6a16 d83f
00000160: 4f8f 8553 4665 dfbf 20e3 dbe3 8791 b03f
00000170: 760c b591 3b21 d13f 2931 f8a9 1812 d6bf
00000180: 764e f17c 953f cebf 89f0 ffb3 6565 c2bf
00000190: d0eb 21ce c6e7 b3bf a85a f1ff f474 d33f
000001a0: 4644 609d fa46 c0bf 2eb8 d83d 5611 b4bf
000001b0: f186 c786 7dcc d7bf 9010 f81d 96f7 d43f
000001c0: 7e9b 1463 29f0 af3f 4eeb 384a 0042 babf
000001d0: 1c47 1a2b 422a dbbf f56b e80d 6fce d6bf
000001e0: 4d87 a4c5 4d25 d03f 7896 4f45 f70a a3bf
000001f0: 1ef3 7b2a d08c a73f 90a8 b818 301e d2bf
00000200: 8ec7 f2d3 2349 a1bf 4a7e 7f39 3261 50bf
00000210: fefb 3c2c a4fd d5bf ebce d976 5b69 b93f
00000220: 5f8a cc8b 401e c2bf cf38 7c41 5df3 d53f
00000230: 231d 85f6 6369 c93f b46b 82a5 365e c5bf
00000240: 0313 2c00 33fc b6bf d368 b15e f0bf c3bf
00000250: d28a bd5e dbb3 c53f 846b b9ee 6936 f0bf
00000260: 6d0f 173a c83f f23f e598 f0a5 9bbb e6bf
00000270: f51d 10d3 126d da3f 2bb5 ab7e 5af9 40bf
00000280: 4dff 8709 f7e6 d63f 104c 6057 728a dbbf
00000290: 9b15 0030 6f4f c53f b74a 732c ff60 ccbf
000002a0: 96cd fa75 360d ef3f ce7f f880 fe60 dabf
000002b0: 0fdd 5e67 1cd1 bc3f db1c 9156 53fe b5bf
000002c0: 7c0c f78a fd26 af3f 0b5d bc1a 0ff7 cb3f
000002d0: 56b3 9d1f b669 983f ba7a 6152 c3a2 b4bf
000002e0: a67d c3cd e5e2 c9bf a5f1 a6be 00ab c9bf
000002f0: 9f12 2728 63ff da3f e34f 678c 0dce e5bf
00000300: 4e00 63bb ab63 b3bf e8e6 b213 d17a abbf
00000310: 880f 77a2 b61a d63f 28c1 929b 65df 7fbf
00000320: f918 04f8 d799 d73f e7a7 843e 97a0 d1bf
00000330: 1638 e375 57e5 9a3f 6379 9082 3615 6a3f
00000340: f27c 5775 6dab c2bf 8b07 5a72 9ddc e43f
00000350: 4c4d 4945 0702 d33f 7c65 b954 d8d6 96bf
00000360: 3f35 0eb4 f226 ab3f a3c1 ceed 1d0d d3bf
00000370: 0944 1726 dffd d33f abbc f9f4 8257 cc3f
00000380: 091f eced d250 b2bf 5dc0 d23c 8a55 bdbf
00000390: 8e1b f8d2 b84d d4bf bc63 8346 eefc f53f
000003a0: 1165 c05b d123 06c0 ef36 3cca dbb9 f23f
000003b0: e4f7 ed46 df76 d7bf c67b 82b1 53e5 9a3f
000003c0: b896 de54 626b e6bf fdf8 0f1d c554 dfbf
000003d0: 283f e491 bdf3 e6bf 8236 8d24 4dbb d23f
000003e0: d268 2179 d1a5 d8bf e1fe f5a6 1952 d13f
000003f0: 6f98 706b 23ff d33f dd39 58d9 6660 b2bf
00000400: 7ccc 56d8 bb15 d53f c75f 7ba7 9a56 d3bf
00000410: 8c45 d4e8 096f ad3f 2aeb 9ab7 25e6 de3f
00000420: 59c0 1a50 c3ae df3f 8360 8fe9 343d f03f
00000430: f3d4 346f d6b3 ce3f 14c1 3e46 8c8d e73f
00000440: f9d9 7921 3e0e ea3f 8282 98ca 89e7 e13f
00000450: 8a3f 8050 a8f4 babf d966 5edd fc8a c73f
00000460: f4b5 6b5d e1b7 d23f 5c1f 7339 cc3d d13f
00000470: 31d8 a8f1 26f2 dc3f 2870 8375 0dda 863f
00000480: df92 cd61 36ab c23f b56b b4dc 137f e3bf
00000490: a3b1 1a9d f4e5 d7bf ea6f eace b0d9 d0bf
000004a0: f9b4 8c7c f048 b2bf 9e11 4f54 746b cc3f
000004b0: 0cac 3679 624f b13f 12be dade 13d2 c83f
000004c0: c700 93df d57d d33f 2e13 a9f9 3dff b3bf
000004d0: faa0 143a facc a0bf aa81 4aea e9f0 b23f
000004e0: 7d70 55f3 93af e5bf d799 4884 e7a3 bb3f
000004f0: c4df 24dd 2afc d6bf 98a9 5e15 1295 843f
00000500: e3b0 2217 631c e6bf aeea cbe6 fdca e5bf
00000510: c56a f318 dcbf d6bf a61f 1fa1 aebf d83f
00000520: e69e 8827 3ab4 c8bf 1d96 bf87 3a49 c7bf
00000530: ed29 8f08 c19c e63f 6907 965d ec6a e53f
00000540: 0974 ad25 d62d e63f 200a 4034 cd9c dabf
00000550: 0a24 3d87 358e c7bf 5e34 dfad 7cde e03f
00000560: 14f2 7956 e632 e53f b34a 01b8 0f78 e13f
00000570: e58e eef4 cad7 dfbf bfb5 a2b7 dc90 e43f
00000580: 16e3 21ef f1ef d83f 18dc f143 2bce dc3f
00000590: b0d2 7ebb 9dd0 d63f 8639 8e41 fbcc d03f
000005a0: e56e 72df 9fc2 db3f ea27 de6b c875 843f
000005b0: ffe3 c2cb 2c95 c03f 8c35 bdd2 da93 b63f
000005c0: cf0f b06a afe7 df3f b6c1 82db d220 e5bf
000005d0: 6f50 623a 8c06 dabf bf84 dfdc a38d d3bf
000005e0: e690 f2c6 ebd8 c5bf 2d3c ec44 db5d cc3f
000005f0: 8184 352e 9ea5 d5bf 889b 24dd b535 c43f
00000600: ff36 e7e6 eda0 d23f c3a7 6d17 2e62 cb3f
00000610: 833a 5b52 38a0 9fbf b054 aa20 4800 da3f
00000620: e49a 4a7a 1ca7 b9bf ae91 a0c1 07ca debf
00000630: 607a b6b4 bca8 f3bf 39ab 2ad2 7f01 e8bf
00000640: 3814 e978 ab7f d53f b70e 1c1a 0437 debf
00000650: cb4b 5aba 9340 cf3f 6fbf 318e c4f7 c1bf
00000660: 91e7 552a 9ef9 b23f d090 7a6e ff15 bc3f
00000670: abf2 35c2 7800 cebf e7d9 3501 8529 d73f
00000680: 3f0c a563 cec8 a7bf ac26 1f94 4159 d7bf
00000690: 4d3d 7609 e209 bc3f 043a d010 8153 a3bf
000006a0: 822e 0a16 b015 e23f cfb5 cd68 0ced dabf
000006b0: b994 aa47 fc2d e0bf 8325 3904 fa91 cebf
000006c0: 4633 34d0 b802 b0bf 5581 e882 8cd3 a53f
000006d0: 1b35 f6e2 887f b93f 71ba 17c1 1004 743f
000006e0: 982c 04cf 4c14 a8bf a322 e829 a6d6 c13f
000006f0: ebfd ebac ab1b c1bf c0fe 7119 8bc6 ad3f
00000700: e7ab 23e1 5f57 ae3f f8a2 97d9 423e 81bf
00000710: 2c39 bef7 e39a cd3f 35c4 9a8c 5e36 b0bf
00000720: 3018 1fa6 b491 843f 6298 5a5e 1425 9bbf
00000730: 8b3b ab67 a979 bbbf 70dd f46c c368 b9bf
00000740: 5bfc 7229 c140 d03f 4707 b6c0 d24e a73f
00000750: 5c46 e450 075f ccbf bd3b dbc9 ffb1 ec3f
00000760: 2acd e97d 7140 f1bf 46cf 24c8 3f0b f03f
00000770: 7c71 172e 2a0e f0bf fbdb edff e792 bdbf
00000780: 5d43 8310 7135 dbbf a52f 8101 d29b d83f
00000790: 4eb8 70df 5cf2 dabf 08f5 c0a3 1c23 d33f
000007a0: 4d8d db50 4f4a bfbf 84fd 7e0f cf1a 9a3f
000007b0: a7cc 9281 5f72 cf3f 5a65 58b6 5234 ddbf
000007c0: 99fe bed0 2ae0 e23f e5f2 8e1d d508 b13f
000007d0: acd9 1fd7 9277 9fbf 6832 f8dd e4af a33f
000007e0: a967 1ec7 418c d5bf 13eb 6d54 3598 e33f
000007f0: 26ff d1bf 2ff5 cbbf 464c d8c2 c773 c13f

mu.0.weight f8 [16, 1]
-0.3214019536972046 -0.014492596896055197 -0.08969257188196478 -0.12477830882216452 -0.9422941947639413 -0.04168621023372116 -0.5292503093739207 -0.3297126922146199
0.0651165246963501 0.6492435877309931 0.4271740214113812 0.6291588191494669 -0.9252886729499207 -0.31917139939980993 0.05122229258123673 0.7294015477406375
00000000: 0000 0080 d991 d4bf 7f10 9f6d 4bae 8dbf
00000010: e05a eda6 17f6 b6bf cd31 a4a3 78f1 bfbf
00000020: d718 b727 4627 eebf 59c8 4b1b e557 a5bf
00000030: 7a15 4558 9eef e0bf 75d3 8843 031a d5bf
00000040: 0000 0000 7aab b03f 8127 0e7d 9ac6 e43f
00000050: 7369 eab4 d156 db3f 0195 07ad 1122 e43f
00000060: 97bb b5fd f69b edbf 3f68 8fe0 4d6d d4bf
00000070: 08d4 ecee ce39 aa3f 8c54 26ea 4157 e73f

mu.0.bias f8 [16]
-0.8585120439529419 0.22930938960802524 1.2454414256324091 0.3169927768774328 -0.33434173340368645 0.9797633335240814 0.14957694151223844 1.0510353023116656
-0.6762855052947998 0.673675893736162 -1.6935292118220926 1.1017057667904477 -0.03423976118853646 1.0508716474421502 -0.5651733388023406 0.3093597955919465
00000000: 0000 0040 ee78 ebbf d31e 8494 025a cd3f
00000010: 09cc 02fd 53ed f33f 656f 7012 9c49 d43f
00000020: c008 aade da65 d5bf b0c9 69a2 385a ef3f
00000030: 3cf0 0354 5625 c33f d6eb a564 0ad1 f03f
00000040: 0000 0080 21a4 e5bf 9269 76bf c08e e53f
00000050: 728b 3916 b218 fbbf 8bdf e239 96a0 f13f
00000060: 7223 0ebd df87 a1bf 3fec e0c9 5ed0 f03f
00000070: 1045 d765 e615 e2bf 1cf0 3007 8dcc d33f

mu.2.weight f8 [16, 16]
-0.03833875060081482 0.015876791945666137 -0.12812892722405567 -0.2440214746996166 -0.09605076909065247 0.16771530638282295 -0.077362748007881 0.05617418760781635
-0.09243160486221313 0.10893574371836534 0.07626611867425437 0.002256451784158601 -0.1277904212474823 -0.21839330900496026 -0.06899502788415429 -0.22840462320715632
0.20554843544960022 -0.039673966219838604 0.2860866140023875 0.30828801192035715 -0.365915146687032 0.35188441973444157 -0.3437800987338191 0.25713335513918534
-0.04276189208030701 0.03398565802825711 0.14205287182481358 0.4230873017918433 -0.5095809244741865 0.20577380017064237 -0.24030170581943927 0.009699139034071278
0.04065433144569397 -0.06146746246501738 -0.3622490944893359 -0.5214902246335851 0.0074766576290130615 -0.5655778313455468 -0.20481847071782733 0.16063743127238073
0.13255459070205688 0.37363382548776497 0.24011298833795058 0.4814298431548566 0.07540521025657654 0.22988671655161153 0.0865451836772398 0.3806156621560121
0.24088504910469055 -0.0012279427455232244 -0.23532778386646333 0.1428528179851091 -0.3309140128803483 0.09912376111473543 0.014003420804898307 0.0617907682779785
-0.19488370418548584 0.16055847830267153 -0.16960522217879975 0.012814515021932572 -0.5221918652350973 -0.20811298227521824 -0.09491084882474472 -0.08696615285532212
-0.03949397802352905 -0.06288849668621127 0.16704376614238275 -0.012928344769811433 0.03488400555217132 0.08036636042407198 0.0759991382270323 -0.1140641330110733
0.01987805962562561 0.3121151800746283 -0.1329359736679564 0.12284285280251254 -0.001019403638157649 -0.27058064412016447 0.12908379833967218 0.186253922223787
0.03891569375991821 0.0967115918561075 -0.08291047811508179 0.2002151608467102 0.19739043712615967 -0.22649300690244464 -0.19305655360221863 -0.20226871967315674
-0.1370050609111786 -0.1620927588344145 -0.07740997234305365 -0.12577365065928925 -0.12631213665008545 -0.07942339777946472 -0.15480409814192303 0.18167730477944966
-0.09265720844268799 -0.42383106888412936 0.17562289720841998 0.06671943782397219 -0.16273460890175406 0.19273526609790798 -0.22937686728376555 -1.1428949903977306
0.16071584820747375 0.09115973390228668 -0.5078191734169224 0.07998390845494516 -0.2108518363721921 -1.106136203998266 -0.2348980930155327 -0.193448915324083
-0.21804594993591309 0.25626017506248006 0.13977259674357548 -0.27072627385021863 -0.4774014489514125 -0.015746525503361544 -0.43276251250443054 -0.07609545399149611
0.0680646002292633 -0.12298054398888626 -0.7943078142088544 0.4886896297117191 -0.7139225706746564 -0.2714578708444532 -0.33878903455651926 -0.20620536505035297
-0.05623626708984375 0.0426107739249245 0.001674396942741906 0.17602867529986616 -0.15687490601742363 -0.0346700207930417 0.021147436856870608 -0.09196312724556555
0.17042917013168335 0.027345389127731323 -0.23105749487876892 -0.05264950523905005 -0.13895480267071575 -0.001273081986813913 -0.029053986072540283 -0.24798354506492615
-0.045556336641311646 0.11248874246572918 0.30194897123474795 0.5027786105305199 -0.502199325870298 0.5223234390435378 -0.18007468585988243 -0.04351895619758633
0.058746516704559326 0.6583618740714612 0.1075102588930311 0.4143661031540827 -0.2065024001149635 0.31269539682113395 0.06384615969168536 0.5253532902264983
-0.031983017921447754 -0.38095893481871973 -0.036676800256021255 0.040455166550347275 -0.10055593257743409 -0.015788175924279127 -0.2563905208607725 0.12627643641492522
0.2131335735321045 0.09542008807039697 0.03945698376602624 0.02351877068063935 -0.20645276767389148 -0.1057628573065305 -0.05683773321640142 -0.17711357546904505
-0.18465501070022583 -0.13096460523838022 0.07758228078286047 -0.31485674764873534 0.06716423801962823 -0.006783285288733788 0.15611316426844923 0.05389007792173976
0.2298341691493988 -0.18402821664711821 0.1506106017952544 0.06614945733497372 -0.2259336196413038 -0.28645174651322197 -0.04809047380563261 0.05802810618945653
-0.12420326471328735 -0.24632576104634132 -0.07957603221462481 0.0020998830620600475 -0.16774129153852976 0.024048892676683833 0.10518983434177684 -0.24086281204234172
0.002421855926513672 -0.09091436143311984 0.0724445378008399 0.12092772109586541 0.03879568037455281 -0.12019167230342569 0.16229539300255916 -0.19011761933489887
-0.07259294390678406 -0.11737093380006211 -0.24883285504892996 -0.028944400168300022 -0.1696188747882843 -0.052998770896150627 -0.03441885330792125 -0.027853226268401487
-0.2108238935470581 -0.2420485337474723 0.14248010890011112 0.19636223835469052 -0.22184309363365173 0.033730523399279386 -0.17333831261237942 0.004167137577642792
0.23258942365646362 0.12501615460574725 -0.3380656446228061 0.1546429693698883 0.13057929277420044 -0.07294411957671502 0.21422119826636846 -0.18694539394783763
-0.05817896127700806 -0.19552335300001775 -0.039835553261501615 -0.004784808721936116 0.019920051097869873 -0.16854810578889334 -0.16969913269756948 0.01368250543074864
-0.21920660138130188 -0.07505259518567427 -0.057339785913519827 -0.16407725055427058 -0.012162963945416943 -0.029614504514422452 0.11821049076249739 -0.08306111835318303
-0.1577846109867096 0.08498793545064308 -0.06494852152334117 -0.13982747524483716 -0.26151060188281955 -0.0023565779336267535 -0.3412096265950398 -0.030479165839371082
00000000: 0000 0000 23a1 a3bf 3a29 b078 0142 903f
00000010: 34a8 0c58 8766 c0bf 42a3 ad7e 183c cfbf
00000020: 0000 0080 c896 b8bf d0f6 f9f5 b177 c53f
00000030: a75e 9f88 0bce b3bf 4254 4ff5 dcc2 ac3f
00000040: 0000 0000 99a9 b7bf e0c4 a280 36e3 bb3f
00000050: e0af 7f25 2d86 b33f 5558 c653 1f7c 623f
00000060: 0000 00c0 6f5b c0bf 25b7 ebdb 4ff4 cbbf
00000070: 645b 597c a8a9 b1bf 3e08 77d9 5c3c cdbf
00000080: 0000 0040 694f ca3f d968 d566 2550 a4bf
00000090: 1dac bd3a 3e4f d23f 3e98 3ca4 fdba d33f
000000a0: 2770 085d 276b d7bf a9ce ae3a 4685 d63f
000000b0: 30f4 443e 7e00 d6bf c225 c275 df74 d03f
000000c0: 0000 0000 e3e4 a5bf fa5f 8773 9166 a13f
000000d0: 9a2d 65db c92e c23f 5820 23c3 dc13 db3f
000000e0: c606 a9a7 7c4e e0bf 5fa3 0dbf cb56 ca3f
000000f0: ca70 d5cf 34c2 cebf 0505 9b67 24dd 833f
00000100: 0000 0000 a5d0 a43f c757 1cca a978 afbf
00000110: 8396 75d3 162f d7bf a484 7f44 0cb0 e0bf
00000120: 0000 0000 d89f 7e3f 6418 1fae 3619 e2bf
00000130: 50c6 acdc 7d37 cabf 7c06 ea70 c48f c43f
00000140: 0000 0080 8cf7 c03f 7d8e 49d9 9de9 d73f
00000150: 54cf 20bc 05bc ce3f 02c9 ea1d bfcf de3f
00000160: 0000 0080 c14d b33f 04df af8c ed6c cd3f
00000170: 8522 853d d327 b63f 9b8c 53cb 015c d83f
00000180: 0000 0040 52d5 ce3f ca8a bc7b 5d1e 54bf
00000190: 87f7 c587 381f cebf 1599 b14a 0049 c23f
000001a0: 70fd c6f7 b12d d5bf c98a 3ec0 2c60 b93f
000001b0: 2202 1d53 d3ad 8c3f 14b3 e521 0aa3 af3f
000001c0: 0000 0000 f3f1 c8bf 6be7 b322 2e8d c43f
000001d0: a68f 3eb9 9fb5 c5bf 9466 7717 7f3e 8a3f
000001e0: e180 edb6 cbb5 e0bf 1c5f 5f3a 72a3 cabf
000001f0: 9de5 bccf 134c b8bf 255f 5fee 6943 b6bf
00000200: 0000 0000 8e38 a4bf 7cd7 8fe4 7519 b0bf
00000210: ba85 4aac b061 c53f 0970 d20f 2d7a 8abf
00000220: a207 00fe 50dc a13f d94d b8c9 e392 b43f
00000230: d893 35f5 ad74 b33f 06dd ed98 4e33 bdbf
00000240: 0000 0000 ea5a 943f 0d5d c0f2 b1f9 d33f
00000250: 34d2 aec5 0b04 c1bf c389 5513 a172 bf3f
00000260: aa4b 6352 b0b3 50bf 664f 5b7a 3151 d1bf
00000270: 1ffb 2762 d185 c03f 64f8 5924 2bd7 c73f
00000280: 0000 0000 c2ec a33f 5484 2a44 17c2 b83f
00000290: 0000 0000 9f39 b5bf 0000 0080 a6a0 c93f
000002a0: 0000 0000 1744 c93f 0798 b50c b9fd ccbf
000002b0: 0000 00c0 13b6 c8bf 0000 0000 f1e3 c9bf
000002c0: 0000 00c0 6189 c1bf 675d 0e9d 74bf c4bf
000002d0: 8d01 99d3 23d1 b3bf d0dc 23da 5919 c0bf
000002e0: 0000 0000 ff2a c0bf 0000 0080 1755 b4bf
000002f0: f235 67e5 9ed0 c3bf 2c01 3ab1 3341 c73f
00000300: 0000 0000 62b8 b7bf 30b5 f858 0c20 dbbf
00000310: f92e f8a3 cf7a c63f a222 766b 8614 b13f
00000320: 7887 94d7 7cd4 c4bf 5e93 5698 8cab c83f
00000330: 92aa b89f 385c cdbf ea53 e841 4c49 f2bf
00000340: 0000 0040 5692 c43f be87 d28b 3e56 b73f
00000350: 1a70 c3fe 0d40 e0bf ee2e 054f d379 b43f
00000360: e992 c266 31fd cabf 9681 51e0 bbb2 f1bf
00000370: 497e b205 2411 cebf f7bd 611e efc2 c8bf
00000380: 0000 0000 eee8 cbbf 0d47 ca13 9166 d03f
00000390: e900 f285 11e4 c13f 3eb2 164b 9453 d1bf
000003a0: 11cc 93ce be8d debf c411 4070 db1f 90bf
000003b0: 640b 8989 61b2 dbbf 2a8b 44de fd7a b3bf
000003c0: 0000 0080 ae6c b13f 91ff 7926 a77b bfbf
000003d0: 2c7f 9f38 f86a e9bf 4f65 60de b046 df3f
000003e0: 9290 9d25 74d8 e6bf af32 61d5 905f d1bf
000003f0: 7979 ea33 b8ae d5bf 3654 93f9 ef64 cabf
00000400: 0000 0000 00cb acbf 4efa ed50 14d1 a53f
00000410: fbaa 0307 ee6e 5b3f ba1a c98d 1b88 c63f
00000420: 5536 7417 7a14 c4bf be5e eada 44c0 a1bf
00000430: e426 c776 aca7 953f a824 f53f e58a b7bf
00000440: 0000 0080 9fd0 c53f 0000 0000 6e00 9c3f
00000450: 0000 00c0 4a93 cdbf 59fa 4d3e e0f4 aabf
00000460: c2e2 8b5e 45c9 c1bf eb4c e75f b1db 54bf
00000470: 0000 0000 54c0 9dbf 0000 00c0 ecbd cfbf
00000480: 0000 0000 2953 a7bf 1af8 0eee 0fcc bc3f
00000490: cee6 20c7 2153 d33f c26b 2b2b c316 e03f
000004a0: 29f5 1552 0412 e0bf 320a 14a5 dfb6 e03f
000004b0: 8d86 4df3 af0c c7bf 57d7 3fdb 1d48 a6bf
000004c0: 0000 0000 0614 ae3f 0c3f c2eb 4c11 e53f
000004d0: 8718 eed5 ca85 bb3f 2d89 6767 f984 da3f
000004e0: f606 85af ab6e cabf 8137 bd8d 3303 d43f
000004f0: f6d9 d9cf 3858 b03f 44cd 0bb4 b1cf e03f
00000500: 0000 0000 1460 a0bf dd95 8a95 a161 d8bf
00000510: ee39 3e33 4dc7 a2bf 6b71 9322 8ab6 a43f
00000520: 8ebf d699 08be b9bf d478 088d c62a 90bf
00000530: ba7d 86c9 b368 d0bf db29 5486 d329 c03f
00000540: 0000 0000 f647 cb3f bbcf a46d 736d b83f
00000550: f06d bfad b433 a43f e170 a9fb 4d15 983f
00000560: 8afd a956 0b6d cabf 1b58 434d 4613 bbbf
00000570: 23ba afda d519 adbf 3c99 285b a8ab c6bf
00000580: 0000 0080 c6a2 c7bf aa58 37bc 72c3 c0bf
00000590: 3a23 b6ae 6edc b33f 2be1 84ea 9c26 d4bf
000005a0: d04b c1ed ac31 b13f 41c1 9747 cac8 7bbf
000005b0: 4808 8123 84fb c33f 466a 81f4 7a97 ab3f
000005c0: 0000 00c0 346b cd3f 9431 0592 3c8e c7bf
000005d0: 8f1c 924c 3547 c33f 43e0 e6bb 2bef b03f
000005e0: 1991 b691 64eb ccbf f901 cab4 3955 d2bf
000005f0: b419 7d88 509f a8bf 8041 aa24 dcb5 ad3f
00000600: 0000 0000 c9cb bfbf c59c ed3f 9a87 cfbf
00000610: ee41 e847 185f b4bf 7e8e 7622 c633 613f
00000620: 8363 acf0 8b78 c5bf 979a 34de 45a0 983f
00000630: 669d 5e92 b8ed ba3f a0b0 45b6 97d4 cebf
00000640: 0000 0000 00d7 633f 928b 17e1 2946 b7bf
00000650: a6e1 a0a8 b98b b23f 6c5b 497f 1ef5 be3f
00000660: 9d9a de04 07dd a33f 8b75 cba5 e1c4 bebf
00000670: 0d65 9e6e 18c6 c43f 03e8 b72e c655 c8bf
00000680: 0000 0080 7395 b2bf 6e18 2c82 050c bebf
00000690: cd7f 4d47 c1d9 cfbf a030 80d0 99a3 9dbf
000006a0: 0000 0040 12b6 c5bf c84e 74a7 a722 abbf
000006b0: 3d8d a512 599f a1bf c3bb a45f 8e85 9cbf
000006c0: 0000 0000 47fc cabf 19bd 3e44 72fb cebf
000006d0: 413b 07c8 c93c c23f 668d f3d7 6522 c93f
000006e0: 0000 00c0 5a65 ccbf cef4 c08d 2045 a13f
000006f0: f430 e827 f32f c6bf ab91 d279 8f11 713f
00000700: 0000 0080 7dc5 cd3f 3d6e c083 8700 c03f
00000710: 5097 e315 dea2 d5bf 0000 0040 57cb c33f
00000720: 0000 0080 d2b6 c03f 2b7b 0440 77ac b2bf
00000730: 71fd 54a8 996b cb3f 0168 92a0 d3ed c7bf
00000740: 0000 0000 a2c9 adbf afa2 5ec3 e806 c9bf
00000750: 87d2 f35c 5365 a4bf 973e a74f 3c99 73bf
00000760: 0000 0000 ec65 943f f840 15fd fb92 c5bf
00000770: 723d 8c80 b3b8 c5bf 2ebb d1ca 9205 8c3f
00000780: 0000 0040 f60e ccbf f569 cd99 a536 b3bf
00000790: fd33 84f2 a35b adbf e4f7 92bc 7b00 c5bf
000007a0: 43a6 f162 e5e8 88bf b5ba 81c1 4353 9ebf
000007b0: 2b79 deef 0a43 be3f 3c67 e552 7e43 b5bf
000007c0: 0000 0040 4932 c4bf 7fa8 50f3 c4c1 b53f
000007d0: ffc5 dd5f 77a0 b0bf 2f21 a1e0 dde5 c1bf
000007e0: 1137 a9f6 96bc d0bf f60d f924 1a4e 63bf
000007f0: 9d96 d3e6 60d6 d5bf ca34 f531 ee35 9fbf

mu.2.bias f8 [16]
0.027560167886231984 0.3409253256136537 -0.19091003742698254 -0.20529889450730537 0.38095838383335523 0.1512296305334278 -0.2620119283396743 0.6970215281034979
-0.10914183382664432 0.1815640398824881 -0.04044152714986045 -0.1311146788822513 0.005965707734910765 -0.07230203263787678 0.12327343210376795 0.08881408114674152
00000000: ab7b f98e bb38 9c3f ffe1 f874 b8d1 d53f
00000010: 300f 9d77 bd6f c8bf 9a2b e8f2 3b47 cabf
00000020: b4e1 ec45 9f61 d83f dae2 a916 7e5b c33f
00000030: f95e d8ad cdc4 d0bf beff 7917 004e e63f
00000040: ff30 e91e b8f0 bbbf fa63 b68e 7d3d c73f
00000050: aa94 0479 c0b4 a4bf 6a93 e9a4 5dc8 c0bf
00000060: 6829 e779 7f6f 783f 752f 9dd1 6282 b2bf
00000070: b8f2 59ff d88e bf3f 6215 f305 85bc b63f
